ALTEGRAD_lab_7_DLForSetsAndGraphGeneration_2024/code/part1/model_lstm.pth.tar (torch, 622178 bytes, 18 tensors)

embedding.weight f4 [11, 128]
000000 6e b5 84 be af f9 e7 3f 5c b2 f8 3f 19 75 0f 3f
       -0.2591967 1.8123072 1.9429431 0.5603805
000010 7a 51 47 3f 02 19 83 bf 3b 56 75 be 44 6f 9b 3f
       0.778587 -1.0242007 -0.23958676 1.214333
000020 b8 4c b2 3e 70 50 3e bf a1 df 8a 3f 38 a0 88 bf
       0.34824157 -0.7434149 1.0849496 -1.0673895
000030 1f 31 9d 3c 12 e7 84 3f 33 0a 72 3f df f5 44 bc
       0.019188462 1.0383017 0.9454681 -0.012021511
000040 c2 ca 20 c0 57 46 b1 3f 41 e5 a3 bf 17 47 e8 3f
       -2.5123754 1.3849591 -1.2804338 1.8146695
000050 b3 01 fc 3f 73 27 26 bf 91 9f f9 bf 98 a7 c2 be
       1.9688019 -0.64903945 -1.9501821 -0.3801849
000060 a2 de 5a bf 06 e2 14 3f 48 94 bd 3f 27 8a 62 3e
       -0.8549596 0.58157384 1.4810877 0.22123013
000070 3a 64 d1 bc dd 0f 08 c0 3f 10 e5 be ef 18 23 3f
       -0.025560487 -2.1259682 -0.44738957 0.6370992
000080 83 88 4d bf a5 da 16 bf f3 00 f8 bd d4 0c e6 be
       -0.80286425 -0.58927375 -0.12109556 -0.44931662
000090 a3 db 23 bf 3d 62 80 3f 98 9f 07 40 c7 ea 4c 3f
       -0.64007014 1.002998 2.1191158 0.8004574
0000a0 6b b4 f3 3f 48 90 8c 3f 68 a8 5b bf 0a c3 9e 3e
       1.9039434 1.0981531 -0.8580384 0.31008178
0000b0 51 e9 d4 3f f7 05 6a bf ce 99 3a 3f f9 01 ef 3f
       1.6633703 -0.9141535 0.7289094 1.8672477
0000c0 1f 52 9f be 99 10 b2 3f d1 5b 7a bf 8f 26 94 3f
       -0.3111734 1.3911315 -0.9779635 1.1574267
0000d0 53 3f ca 3e 9a cc 36 3d 9a 04 c7 bf 0d d2 a6 be
       0.39501438 0.044628717 -1.5548279 -0.3258213
0000e0 49 e9 01 40 c7 98 79 3e e9 8a a0 3f 8a 35 f2 bf
       2.0298636 0.24374686 1.2542392 -1.8922589
0000f0 26 9d 5c bf aa ba ce be 69 e2 50 3f da 6d 93 3f
       -0.8617729 -0.40376788 0.81595474 1.1517899
000100 8c 62 8f bf fe be ff bd 40 27 6b bf 58 ea 6b 3f
       -1.1201949 -0.12487601 -0.91856766 0.92154455
000110 b3 48 02 be 8c de a4 3e ec 18 e8 3d 49 8c 12 3f
       -0.12723045 0.3220104 0.113328785 0.5724531
000120 b1 4f 72 bf ae 52 ad 3e 7c 12 8a 3f 24 0d fa bd
       -0.9465285 0.33852142 1.0786891 -0.122095376
000130 6e 30 80 be 3e 98 55 3e 42 96 bb 3f 75 6b f6 be
       -0.2503695 0.20858857 1.465523 -0.48128858
000140 cd 1b 8a bf 62 fe 40 3f c5 ed 3d 3f e4 90 a5 bd
       -1.0789734 0.7538816 0.7419093 -0.08084276
000150 6d 82 8e 3f ee 59 86 bf 25 0d a7 3e 94 a3 1f 40
       1.1133553 -1.0496194 0.32627216 2.494359
000160 20 51 f2 be 75 e7 13 3f cc b8 bd 3f 34 9a 05 40
       -0.47327518 0.5777505 1.482202 2.0875368
000170 2d 1f 4b bf cd 02 69 bf 4f 06 d5 bf f3 d8 a8 3f
       -0.79344445 -0.910199 -1.664255 1.3191208
000180 b0 49 09 be 65 97 2d bf 4a 8a 26 bf ab fb d5 3e
       -0.13407016 -0.67809135 -0.6505476 0.4179357
000190 cc 78 84 3f 61 b3 be bf 30 4d 8f 3e 41 9b 82 3f
       1.0349364 -1.4898492 0.27988577 1.020363
0001a0 4f e0 92 bd db a4 d0 3f cd a8 ba bf 86 bd 76 bf
       -0.0717169 1.630031 -1.4582764 -0.9638294
0001b0 3a 7e 06 40 55 da 29 bf 0f 18 b9 bf 3c b4 d2 3e
       2.1014543 -0.66348773 -1.4460467 0.41153133
0001c0 e1 da 36 3e f7 97 08 bf 7e e7 10 40 9c fa d5 3e
       0.17856933 -0.5335688 2.2641292 0.41792762
0001d0 c4 42 27 bf e9 37 5b bf 23 5c e2 bd 85 20 c6 be
       -0.6533625 -0.8563219 -0.1105273 -0.38696685
0001e0 43 36 92 bf 69 6d 23 c0 c7 ce a8 3f c6 3f 77 be
       -1.1422809 -2.5535529 1.3188103 -0.24145421
0001f0 90 0a 0f be b8 c8 7f 3e 7a b7 b2 be 8d 8a b4 be
       -0.13968873 0.24978912 -0.34905607 -0.35261956
000200 75 bc ed 3f 2a 71 c7 be ad 22 81 bc d1 7e 3c bf
       1.8573138 -0.38953525 -0.015763605 -0.73631006
000210 38 9f 00 3e 7d 9a 58 bf d3 93 d0 be 88 32 12 be
       0.12560737 -0.8461073 -0.4073778 -0.14277089
000220 3c 2c 19 3e d2 34 66 bc 9c 27 27 3f 94 a7 95 bf
       0.1495828 -0.014050679 0.65294814 -1.1691766
000230 e3 f0 23 3e 81 77 08 40 d9 ff 51 bf 22 97 01 c0
       0.1600986 2.132294 -0.8203102 -2.0248494
000240 32 f4 2f 3f fc 6a 57 bf b5 28 8f bf ec 72 dd bc
       0.6873199 -0.8414762 -1.1184298 -0.027032338
000250 fd ea e5 bd 89 69 9a be 7a 31 49 bf 81 b6 89 3e
       -0.11226461 -0.30158642 -0.7859112 0.26897052
000260 55 86 52 bf 0f ba b3 bf c6 bf be bd 30 cb 57 be
       -0.82236224 -1.4041156 -0.09313922 -0.21073604
000270 d9 2b 66 bf e0 22 f7 bf e9 8d ae bf 79 ac ee be
       -0.89910656 -1.9307518 -1.3637058 -0.4661596
000280 d2 a4 92 bf 72 e7 1d c0 18 52 7f 3f 95 1f 64 bf
       -1.1456549 -2.4672513 0.9973464 -0.8911069
000290 7f 94 a1 3f a5 e1 5a bf a1 c9 aa 3f 9e 4c 22 3e
       1.2623442 -0.85500556 1.3342782 0.1584954
0002a0 38 1f 11 3e 52 0c 5f bf ea a5 aa be 97 6a 26 3f
       0.14172065 -0.87128174 -0.33329707 0.65006393
0002b0 ba 6d 8a 3f bd 7e e4 be ba 6b 8b be 08 1e f5 be
       1.0814736 -0.44627944 -0.27230626 -0.47874475
0002c0 c8 75 6f 3e c4 43 45 3e 8c e2 b7 bf a5 32 c2 bc
       0.23384774 0.19264132 -1.4366012 -0.02370579
0002d0 d1 58 a7 bf 14 d6 d9 bf b3 58 b0 be 29 6b c4 3e
       -1.307398 -1.7018456 -0.34442672 0.38363007
0002e0 3c 4e e3 3e b6 1c 00 3f be 8c fb be 9d ee 62 be
       0.44395626 0.5004381 -0.49130815 -0.22161336
0002f0 45 d1 8f bf ca 52 8f be f9 f9 e3 be cc f0 9b 3f
       -1.1235739 -0.2799285 -0.44526652 1.218286
000300 e7 3c 25 3f 36 b1 18 bf 30 3e f2 bf bb 40 2a be
       0.64546055 -0.596454 -1.8925228 -0.16626255
000310 92 49 e1 3e b9 cd 75 bc 3b c1 4e 3e 5c 2a 82 3f
       0.44001442 -0.015002661 0.20190899 1.0169177
000320 a6 d3 07 c0 38 23 cd be 16 be 68 bd 8f bc 2e 3e
       -2.122293 -0.40065932 -0.056821905 0.17064117
000330 6d 4d d4 bf 09 d7 9a be b1 7a 7c be 7a be aa 3f
       -1.6586128 -0.30242184 -0.24656178 1.3339379
000340 94 54 3a bf ee a3 36 3e 35 b8 c5 3f d8 a9 df 3f
       -0.72785306 0.17835972 1.544684 1.7473707
000350 70 19 ac 3e 82 4d 27 bf 78 67 12 3f 9f 39 2c bf
       0.33613157 -0.6535264 0.5718913 -0.6727542
000360 7b 53 5b 3e bb ae ad be 8c 5d 72 3f df 1e 63 3f
       0.21418564 -0.3392237 0.9467399 0.8871898
000370 ee 48 16 bf 96 b0 44 be 4c a3 86 3f 49 da 65 be
       -0.5870503 -0.19207987 1.0518584 -0.2244655
000380 eb 37 33 bf 43 73 d1 3d 97 27 d1 3f d2 77 a6 3f
       -0.700072 0.102270626 1.6340207 1.3005316
000390 63 df 0a 3f 36 a5 01 3f e7 28 b5 bd 3a 31 ac 3e
       0.5424711 0.50642717 -0.08845692 0.33631307
0003a0 db 3b 47 bf 99 f6 63 bf 42 3e 3d 3f c5 a0 44 bd
       -0.7782571 -0.89048153 0.7392312 -0.048004884
0003b0 2a 69 30 bf 59 93 48 bf 5a 6e 70 be 38 01 94 3f
       -0.6891047 -0.78349835 -0.23479596 1.1562872
0003c0 63 7f d0 be 9a 5a 67 3f b5 ab db bf de ef 36 3e
       -0.40722188 0.9037262 -1.7161776 0.1786494
0003d0 5b f9 07 bf 0f 72 ce bf 61 61 29 bf ee 91 53 3f
       -0.5311486 -1.6128558 -0.66164213 0.82644546
0003e0 2c 42 06 be 60 d2 e2 bd 1b ac 5a bf 6c 89 73 3f
       -0.1311118 -0.11075282 -0.8541886 0.95131564
0003f0 7a 63 c3 be d0 21 80 3f df b5 cf bc 9f ae e9 3e
       -0.38161832 1.0010319 -0.025355278 0.45641038

lstm.weight_ih_l0 f4 [256, 128]
000000 97 e8 2e be 80 70 08 bd 52 0f 83 bd 84 c6 45 be
       -0.17080913 -0.033310413 -0.063994065 -0.19314009
000010 89 30 01 3c 6b 09 bb bc 27 fd 2d 3e 3c 0b b1 bc
       0.007885107 -0.02283164 0.16991101 -0.021611802
000020 ed 78 c3 3d d2 bc 3a 3e c7 81 24 be dc f1 3d 3d
       0.09544549 0.18236092 -0.16065131 0.046373233
000030 69 fc 03 bd 60 e5 f7 bd 9c 6b 5d 3e e3 55 68 3c
       -0.03222314 -0.12104297 0.21623081 0.014180633
000040 7f ad 21 3e ae 9f e2 bc 10 d4 eb bd e0 01 d0 3d
       0.1578884 -0.027664032 -0.11515057 0.10156608
000050 8c 7e 6a bd 4b 7e ed bd 21 2d 17 3e aa 77 a7 bd
       -0.05724959 -0.11596354 0.14763309 -0.08177121
000060 cc 56 bd 3d 75 aa 06 3c bc 57 85 be d8 6e 53 be
       0.09245071 0.008219351 -0.260435 -0.20647752
000070 cf 3d 3d be 8f f1 44 3e d8 0c 0b 3e 15 b0 d5 3c
       -0.1848061 0.19232772 0.13579118 0.026084939
000080 49 bd 93 3e a5 97 75 3e a4 2f 31 be 4b c0 a7 3e
       0.2885535 0.23983629 -0.1730333 0.32763895
000090 62 ee cb be 28 82 93 3d ee 33 4d be 00 24 17 be
       -0.3983031 0.0720256 -0.20039341 -0.14759827
0000a0 2f f1 1f 3d fe 4b 31 3e 26 88 01 ba ec 56 30 bb
       0.03904837 0.17314145 -0.0004941247 -0.0026907278
0000b0 3b 30 40 3e 81 0c de 3d 7f 01 b9 bd 50 f8 0b bd
       0.18768398 0.10842229 -0.090334885 -0.034172356
0000c0 2e 49 55 3d 93 8c 60 bd 0a 0b c1 3d 03 99 8c 3d
       0.052071743 -0.054821562 0.09425934 0.06865122
0000d0 12 a6 3d 3d 1d 65 dc 3d 84 c0 05 3e 72 c8 02 be
       0.046300955 0.10761473 0.1306172 -0.12771776
0000e0 55 05 79 bd 7e 7c 2a be 3d 08 ff bd 2d 5a 10 3e
       -0.0607961 -0.16649053 -0.12452743 0.140969
0000f0 62 00 ba 3d cc e7 0c be d3 33 5f 3d 0f 44 37 be
       0.09082104 -0.13760298 0.054492783 -0.17897056
000100 d5 6e 1b bd 1d 18 10 3d be 92 a4 3d 55 aa 52 bd
       -0.037947495 0.035179246 0.08035801 -0.051431973
000110 f1 ca 0e be 16 ec 29 3e e0 40 95 3d e1 a8 92 be
       -0.13944604 0.16593966 0.072877645 -0.2864447
000120 90 33 d9 3d 66 32 13 bd 6c e8 73 be ee 3a f1 bd
       0.10605538 -0.035936736 -0.2381913 -0.11778818
000130 4b ab 9c 3d 66 37 d6 bc 6f aa 5e be 0e 24 de bd
       0.07649859 -0.026149463 -0.21744703 -0.10846721
000140 28 17 33 bd 4d 9b 7d bd 24 db 82 be d1 fb 2c 3b
       -0.043723255 -0.061915684 -0.25557816 0.0026395211
000150 8b 6c 43 be 6d 62 df bc 03 c8 59 bd 8a a4 a7 3d
       -0.19084375 -0.027268613 -0.05316926 0.0818568
000160 8a 76 e6 bd d1 c3 92 bd 85 8a 29 3e f1 5f 56 3d
       -0.11253078 -0.07166255 0.16556747 0.05233759
000170 0f bc 17 be 69 8e 55 3e 70 c6 61 bd 04 3e 18 3d
       -0.14817832 0.20855106 -0.055120885 0.037168518
000180 d3 28 25 3d 21 fa 2e be 6d 11 41 3d 87 6d 57 bd
       0.040322136 -0.17087604 0.04713576 -0.052594688
000190 8b 3d ff bd 25 26 01 bd c1 57 14 3d d6 66 26 be
       -0.1246291 -0.031530518 0.0362165 -0.16250166
0001a0 34 a1 21 3e b5 2b 32 bd cd 19 5f 3e 55 29 f2 3d
       0.1578415 -0.043498714 0.21787186 0.1182429
0001b0 17 c6 9f bd bd 4c d7 bd bc 37 03 be eb 9d d2 bc
       -0.078014545 -0.105126835 -0.1281423 -0.025710067
0001c0 32 40 47 be 70 a2 65 bd dd 6b f1 bc 7d ec 04 3e
       -0.19458082 -0.056063116 -0.029470379 0.12980838
0001d0 e9 67 aa bd 49 91 b4 3e b2 8b 48 bd d4 60 c3 bd
       -0.083206005 0.35267094 -0.04896135 -0.09539953
0001e0 ac f8 6b 3e b7 d6 79 3d 51 01 94 3d 1f c7 45 bd
       0.2304408 0.060995784 0.072268136 -0.0482856
0001f0 73 22 40 3e 1f 04 91 be f3 43 3e bd 7f 90 2c bc
       0.18763141 -0.28323457 -0.04645152 -0.010532497
000200 a4 c6 7a 3d 2a 76 68 bd 13 a7 82 3c d8 a3 89 3d
       0.061224595 -0.056753315 0.015948808 0.06720704
000210 e7 2d 89 bd 59 45 df bc 85 6e f6 3c 27 da b6 bd
       -0.06698208 -0.027254747 0.030081997 -0.08928328
000220 b0 2e 8f 3d fe 70 35 3d a0 a6 87 bd d4 ec a4 3d
       0.06991327 0.04429721 -0.06623578 0.08052984
000230 53 3f 23 3e e6 8e b1 bd f6 56 07 3d 74 79 20 3e
       0.15942125 -0.08669834 0.033041917 0.1567133
000240 7d aa 21 be 35 b1 be 3d de 23 0e 3e a8 4d f8 3c
       -0.15787692 0.09311143 0.1388087 0.030310467
000250 ce a8 07 bd 11 88 01 3e 52 1a ee 3d e8 e0 c3 3c
       -0.03311997 0.12649561 0.11626114 0.023910955
000260 46 83 ef bb 1c 88 c8 3d f4 9b d9 3c 8d bb 63 bd
       -0.00730935 0.09791586 0.026563622 -0.055598784
000270 de ac a4 3d 7a 7f fb 3c 40 11 4b 3d b0 14 fc bd
       0.08040784 0.030700434 0.049576998 -0.12308633
000280 22 f5 00 3e 90 69 1e 3e da 35 77 3d 27 d0 72 bc
       0.12593511 0.15469956 0.06035409 -0.014820135
000290 01 33 dd 3d 91 cf e5 bd bf fd 8a bd 52 93 a8 3d
       0.10800744 -0.11221231 -0.067866795 0.08231224
0002a0 6c e4 cf 3d 2c 63 e3 bc 4d c9 d1 3d 06 e2 8f 3d
       0.1015099 -0.02775725 0.10243473 0.070255324
0002b0 ce 98 82 3a 92 a6 e6 3c b4 77 f5 bd 53 d9 97 bd
       0.0009963752 0.028155599 -0.11985722 -0.07414498
0002c0 c6 53 d7 bd b5 03 04 bc 94 2d 40 3c 32 67 f7 3a
       -0.105140254 -0.008057524 0.011729617 0.0018875359
0002d0 e0 f7 1e 3e fd 90 82 3c 39 c0 7b 39 6f bc fa bc
       0.15524244 0.015938276 0.00024008834 -0.03060743
0002e0 83 18 17 be 5e 49 bc 3b b5 4e 39 bb 70 c2 4a bd
       -0.14755444 0.0057460507 -0.0028275673 -0.049501836
0002f0 4c bb 05 3e 85 3f 0f 3e 32 ec 23 be 6c 43 00 3b
       0.1305973 0.13989075 -0.1600807 0.0019571437
000300 95 a6 f0 3d f5 6b 90 3c f9 58 a8 3c 80 7d bc bb
       0.11750523 0.017629603 0.020550238 -0.0057522655
000310 18 ae e3 bc 32 a4 a0 bd dc a7 ef bb 71 ef 12 be
       -0.027792975 -0.07843818 -0.0073137116 -0.14349152
000320 4f f7 89 bd ee de 0c 3e 44 6c 9f bd 1f e8 f1 3c
       -0.067366235 0.13756916 -0.07784322 0.02952963
000330 d2 81 18 3d 5a db 19 3e 7b 06 01 bd 76 6b 5e 3d
       0.03723318 0.15025082 -0.03150032 0.0543017
000340 a5 5c fa 3b 5f 33 d8 bd b5 7c b3 3d 9e f1 93 bd
       0.0076404386 -0.10556673 0.0876402 -0.07223819
000350 8d 2d b8 bd c7 d0 41 3e 5e ec 9d 3d c7 05 fa 3d
       -0.08993063 0.18927298 0.07711099 0.12208133
000360 e8 5b b1 3c c6 83 e3 3d 78 69 60 bc 84 83 98 bd
       0.02165027 0.11109118 -0.013697021 -0.074469596
000370 bf 4d 0b 3e 72 06 85 3c 47 97 45 3d ac c8 ca 3c
       0.13603877 0.016238425 0.048239972 0.024753891
000380 ea 16 0f 3e 99 22 31 3e 76 0c 1c bd a6 7e 57 bd
       0.13973585 0.17298354 -0.03809782 -0.052611016
000390 79 27 cc bc be b4 52 bd 3b 8a 6c 3c b1 cc 7c 3d
       -0.024921166 -0.0514419 0.014437254 0.061718646
0003a0 e9 fd e1 3d 4e a8 83 bc c7 ea f9 bd 78 92 1c 3d
       0.11034758 -0.016071465 -0.12202983 0.03822562
0003b0 cd 40 a7 3d 8a 30 b0 bc 35 3b 91 bd b6 57 bd bd
       0.08166657 -0.02150752 -0.07091371 -0.09245245
0003c0 77 fb ad 3d 2a 9a 0b 3d 96 c9 2c 3c bc 54 01 bd
       0.08495229 0.03408257 0.010546109 -0.03157495
0003d0 12 1c 3f 3e 50 20 b1 bc 25 28 32 3e c7 a5 09 be
       0.18663052 -0.021621853 0.17398126 -0.13442145
0003e0 5d 4d a7 3d 2d 8d 77 3d 93 af 0c be 9d fb 14 be
       0.08169053 0.06043737 -0.13738851 -0.14549108
0003f0 21 ce cd 3c e3 57 b6 bc 0b 69 ee 3c 7e 93 42 bb
       0.025122704 -0.022258705 0.029102823 -0.0029689963

lstm.weight_hh_l0 f4 [256, 64]
000000 ec b7 d2 be 13 87 66 be 81 a0 01 bf eb e0 bd 3e
       -0.41155946 -0.22512464 -0.50635535 0.3708566
000010 d2 1d ac bd 9e 2f 50 be fd fb 06 3d 06 e7 0b 3c
       -0.08404125 -0.20330665 0.03295516 0.008538967
000020 74 87 3b bd c6 61 8b 3c 65 57 c1 3d 92 01 80 be
       -0.045783475 0.017014395 0.09440497 -0.25001198
000030 02 4c 1d 3f d5 29 e4 39 94 86 c4 3d 41 83 5b 3e
       0.61444104 0.00043518716 0.09595981 0.21436788
000040 7c 7e 6b be e1 a7 78 3d d4 29 d6 3c 5a c5 7b 3d
       -0.22997469 0.060706977 0.026142992 0.061467506
000050 2b 30 0c 3e 2a a2 53 ba 38 69 0c be 90 08 15 3e
       0.1369025 -0.00080731756 -0.13712013 0.14554048
000060 2a aa 93 bc 46 b2 08 bf fe ca 03 bf 8a 35 49 3e
       -0.018025476 -0.53397024 -0.51481616 0.1964933
000070 50 47 b0 bc e0 bb 60 bc cb 81 98 bd 86 84 bc 3d
       -0.02151838 -0.013716668 -0.07446631 0.09204964
000080 d6 87 20 be 95 dc bf 3d a6 0b fe 3d f4 bc 5a 3e
       -0.15676817 0.093682446 0.124045655 0.21361142
000090 f1 84 cb 3d e6 cf 0c bd e8 65 dc 3c a0 44 29 bd
       0.09937466 -0.034377955 0.026904061 -0.04132521
0000a0 d9 c5 4f bc ef 95 63 3d cd 66 a5 3e 40 06 71 3d
       -0.012681448 0.05556291 0.32304993 0.05884385
0000b0 c9 5d 86 be 74 c3 7b 3d 15 ab f9 bd ca e8 e4 3c
       -0.26243427 0.061465696 -0.121908344 0.027943034
0000c0 c5 5c ba 3d 6e 26 1b be 3e f8 80 be ed 63 af 3c
       0.09099726 -0.15151379 -0.25189394 0.021409953
0000d0 8a 05 ab bd f6 c4 ce bd a6 31 19 be bb 36 d0 3e
       -0.08350666 -0.10096161 -0.14960346 0.40666756
0000e0 91 c8 4e 3e 1f 2f 1e 3d e2 ec 51 be 77 48 8e 3e
       0.20193698 0.038619157 -0.2050052 0.2778966
0000f0 c1 cb 9a be d3 b9 80 bd 07 c8 bd 3b b9 2b 8b bd
       -0.30233577 -0.06285443 0.0057916674 -0.06795449
000100 5d 6d 49 be 97 5a 01 be 02 52 2b bd 1b 8a 14 3e
       -0.19670625 -0.12632214 -0.041826256 0.14505808
000110 5c b8 4b 3d 85 14 7c 3e e3 cc 51 bd 45 89 06 3e
       0.049736366 0.24617203 -0.051220786 0.13138302
000120 92 ff de bd d7 92 a4 3b eb 2d 96 3d 4f c0 18 be
       -0.1088859 0.0050223875 0.07332977 -0.1491711
000130 e9 97 c9 3c dd 87 07 3d 1d df 20 3e 4e fa 78 bd
       0.02460857 0.033088554 0.15710111 -0.060785584
000140 a5 7a c7 bd ab 70 28 3b bf 36 0f be 2e 09 1d be
       -0.097401895 0.002570192 -0.13985728 -0.15335533
000150 b1 44 95 3d cc 5c 18 bc 02 0a 22 be f5 e0 21 be
       0.072884925 -0.009299468 -0.1582413 -0.1580847
000160 4e 31 0c be 20 76 97 3d 1e 6b 10 3d d9 9a ca 3e
       -0.13690683 0.073955774 0.035258405 0.39571264
000170 38 ba 70 3e bb e3 aa bc d1 f8 19 bd 3d b2 1b 3e
       0.23508537 -0.020860543 -0.037590805 0.15204711
000180 87 09 54 bc fa 45 51 3c 67 c8 57 3c 3b 81 d3 3d
       -0.012941725 0.012773031 0.013170338 0.10327383
000190 45 a8 8a bd 79 bf 60 3d 68 c8 90 3e 14 5d 0c be
       -0.06770376 0.054870103 0.28277898 -0.13707381
0001a0 40 98 09 3e 6f 6d d6 3d ae 8a 80 bc 74 6d 4b bb
       0.13436985 0.104700916 -0.015691128 -0.003104058
0001b0 ff cb ae 3d c1 4c 1a 3e fe 5b 41 be a1 02 35 be
       0.08535003 0.15068342 -0.18882748 -0.17676784
0001c0 c2 07 81 be d3 4c 2b bc e0 c7 82 bd fb e8 82 be
       -0.2520123 -0.010455328 -0.063857794 -0.25568375
0001d0 f6 42 e4 3d d6 25 fe 3d ad 65 61 bc 23 2c 55 bd
       0.11145584 0.124095604 -0.013757152 -0.052044045
0001e0 25 fa c7 3d be 36 b6 be cd d2 63 3d 7c e0 b1 3c
       0.09764508 -0.3558864 0.055620957 0.021713488
0001f0 07 5b d8 bd 34 81 05 be da 65 db bd 0d e7 f7 3e
       -0.10564237 -0.13037568 -0.10712786 0.48418465
000200 d7 8d 90 bd ea 5a 3a 3d 67 b5 03 be 4b ab 09 be
       -0.07058304 0.04549686 -0.12862168 -0.1344425
000210 61 68 b6 3d 52 89 2c bd 2b 93 40 3d a4 99 16 be
       0.089066274 -0.042123146 0.04701535 -0.14707047
000220 f4 14 03 3e 3b 95 f9 3d dc 23 a2 bd 06 8d 52 3d
       0.12800962 0.121866666 -0.07916996 0.05140402
000230 30 ff 82 3f 7e b2 bf bd d5 ac 9e bc 0a b4 31 3d
       1.0234127 -0.093602166 -0.019369522 0.04338459
000240 2d 3f 57 be a4 a3 5c bc 2d 51 e8 bd 83 61 61 bd
       -0.21020193 -0.013466749 -0.11343608 -0.055024635
000250 8e 11 8b 3e 04 7f 1f be 2c 8e 14 3e f9 c5 3e 3e
       0.2716183 -0.15575796 0.1450736 0.18630208
000260 2b 47 b5 bc bf 2f 6f bf 0d 0d c9 be 7d 20 0c 3e
       -0.022128662 -0.9343223 -0.3926777 0.13684268
000270 c6 5a 42 be 0f 3d 8f 3d 17 ae 61 3d 51 08 f9 3d
       -0.1897994 0.06994068 0.055097666 0.12159789
000280 17 3a ab bc 70 ed 28 3e 14 df 8e 3b cf 30 ca bd
       -0.020901723 0.16496825 0.004360089 -0.09872591
000290 6e 4e c8 bd 57 26 bf bd 04 b0 1c be 97 b0 d7 3c
       -0.09780584 -0.093334846 -0.1530152 0.026329322
0002a0 94 6b 9e bc 9c 12 2d 3e 24 ea 79 3e d2 ff 0b 3e
       -0.019338407 0.1690163 0.24405724 0.13671806
0002b0 d2 a7 94 bd fb f0 ff bd 02 e7 8a bd 4c 5e 56 3d
       -0.07258572 -0.12497135 -0.067823425 0.052336022
0002c0 b4 22 27 bd 16 2f 52 bd c9 fc 60 bd 3e c5 df bd
       -0.04080458 -0.051314436 -0.054928575 -0.10926293
0002d0 3f 23 03 be 5e 25 ce 3d f8 e4 7c bd 18 c9 1e 3f
       -0.12806414 0.10065721 -0.0617418 0.62025595
0002e0 14 50 c8 3e 77 68 8a 3d ad 5a 1d be cd b2 a8 3e
       0.39123595 0.06758206 -0.15366621 0.32948914
0002f0 98 ce 7e bd f2 0e 66 3d d6 d5 35 3d 6d 33 59 bd
       -0.062208742 0.056166597 0.044393383 -0.05302756
000300 86 a1 0d bf 21 e9 38 be 1e f3 f7 be 65 b5 fc 3e
       -0.5532459 -0.18057682 -0.4842767 0.49357143
000310 61 21 39 be 05 5a fa bd 42 7e 1c 3e ce 54 1d bd
       -0.1807914 -0.12224201 0.15282539 -0.038410954
000320 42 73 80 bc 57 1d 1c 3c db 1d 9d bd 6c b3 cc be
       -0.01567996 0.00952848 -0.0767171 -0.39980638
000330 98 c7 42 3f 25 11 5f 3d 90 dc 6a bd 40 74 fa 3d
       0.76085806 0.05445971 -0.05733925 0.12229204
000340 cf 73 1d bc dc 81 78 3c 26 91 73 39 77 d4 0c 3d
       -0.00961013 0.01516768 0.00023228358 0.03438231
000350 b7 fd a4 3d 9a 11 4d bc 60 bd 16 bf 4e d3 7f 3e
       0.08056205 -0.012516404 -0.58882713 0.2498295
000360 b5 ef 98 be 8f f4 3d bf 52 ea a6 be 31 c0 d1 3e
       -0.29870382 -0.7420129 -0.32600647 0.40966943
000370 c6 6e a5 3c 19 74 c0 3d d9 97 fb bd 53 ac 0c 3e
       0.020194422 0.09397144 -0.12284822 0.13737611
000380 ff cc 66 bd 0e 84 d5 3d 70 df 28 3e d4 a7 81 3e
       -0.056347843 0.10425578 0.16491485 0.25323355
000390 d4 98 96 3c 8b 20 ec bc e0 55 0d 3e 9a 31 64 bc
       0.018383421 -0.028824111 0.1380229 -0.013927842
0003a0 2b d5 b8 bd a3 4e 7b bd e6 57 a2 3d 1c d9 c4 3d
       -0.090250336 -0.06135429 0.079269215 0.09611723
0003b0 05 92 cc bc bf 90 af 3d 22 46 d6 bd 98 94 a6 3c
       -0.024971971 0.0857253 -0.104625955 0.020334527
0003c0 93 2b 66 3d 89 5e 34 3d 90 eb ac be b2 fc 7c bd
       0.0561939 0.04403547 -0.3377347 -0.061764427
0003d0 fc a2 b2 3c 77 68 50 be 20 ab 20 bd f6 1e dd 3e
       0.021806233 -0.2035235 -0.039225698 0.43187684
0003e0 76 1c 80 3e 6b e2 67 be 63 25 0d be f6 51 86 3e
       0.25021714 -0.22644965 -0.13783793 0.26234406
0003f0 e3 84 6f be 96 d7 de bb 44 2b 55 3d 25 2f 09 be
       -0.23390536 -0.006800602 0.052043214 -0.1339689

lstm.bias_ih_l0 f4 [256]
000000 49 4d a5 be 2f a1 9b bc 2e c7 61 be 26 1b bf be
       -0.32285526 -0.018997757 -0.22048637 -0.373254
000010 4f 7c d7 bd 42 2a 5e 3d 61 2b ac 3e 34 bf 0c 3e
       -0.10521757 0.05423952 0.33626845 0.13744813
000020 80 b8 d9 bd e8 62 19 bd 8f 48 ba bd ca ab f6 bd
       -0.10630894 -0.03744784 -0.09095871 -0.12044485
000030 63 35 ae bd bc 9b 01 3d 1c 00 7d be af ba f4 3c
       -0.085062765 0.03164266 -0.24707073 0.029874174
000040 81 01 3c be 70 b5 86 be 5f bf 2f be 12 c8 d6 bd
       -0.18359949 -0.263103 -0.17162846 -0.10487379
000050 15 63 4e be 78 68 86 bd a8 63 7c be b3 7d 9b 3e
       -0.20154984 -0.065628946 -0.24647391 0.30369338
000060 3e 32 0b be ec d5 c5 3d 85 33 2a bd d5 07 c5 bd
       -0.13593385 0.09659943 -0.04155304 -0.096206345
000070 ca c5 3e be 02 e9 f4 bd d4 3f f9 bc c0 1c 01 3d
       -0.18630138 -0.11958505 -0.030425943 0.03152156
000080 37 1d 16 3c df e5 e5 bd 69 84 f8 bc 5a 11 1f be
       0.009162239 -0.11225485 -0.030336576 -0.15533963
000090 39 b7 86 3d 62 58 f8 3e 7e 50 89 bd 76 44 d5 3c
       0.06577916 0.4850493 -0.06704806 0.026033621
0000a0 ec 5e 32 bd 1d 9d 80 bc f0 3c b4 bc b1 0f b7 3e
       -0.043547556 -0.015699917 -0.022001714 0.3575416
0000b0 b9 38 1a 3f d6 e0 69 bd 0d 8e c8 3b 64 ca 4d 3d
       0.602428 -0.057099186 0.0061204494 0.050241843
0000c0 e4 c8 fa bd 8d 20 cd 3d ef 73 42 bd 6b 60 0f be
       -0.12245348 0.10015974 -0.047473844 -0.14001624
0000d0 a1 6e 37 be 79 ac 86 be 1b de e0 bd e6 ed 46 bd
       -0.17913295 -0.2630346 -0.10979863 -0.04856672
0000e0 5d b0 c3 3e 4c c1 61 be d0 bd 70 3e 31 c7 ec bd
       0.38220492 -0.22046393 0.23509908 -0.1156143
0000f0 e7 ed 8d be 94 f6 67 be c7 5c d2 3c 1f e9 80 bd
       -0.27720568 -0.22652656 0.025679005 -0.06294464
000100 eb 5f 95 bd 75 03 14 3d 2a 09 dd bd 26 28 6a 3d
       -0.072936855 0.03613611 -0.107927635 0.057167195
000110 52 02 d3 3d 91 69 b5 3e c6 b0 ea 3d 1b 16 6e 3e
       0.10303177 0.35432103 0.11459498 0.2325062
000120 14 a6 ed 3c ce c6 8d 3e d8 92 8b 3e d6 56 0b be
       0.029009856 0.27690738 0.2726047 -0.13607344
000130 7e 22 82 3e 9e 25 d1 3d 1b 6f 91 3e eb 80 9f 3d
       0.2541694 0.10212253 0.2840508 0.07788261
000140 11 b4 3b 3e 60 be 66 3e a4 88 4f 3e 74 63 7b 3e
       0.18330409 0.2253356 0.20266968 0.24549657
000150 b6 3d 73 3e 2d a4 86 3e 3e c6 3a bd 2a 3b a7 3d
       0.2375401 0.2629713 -0.045599215 0.081655815
000160 cb a6 5b bd 39 b7 9a 3e 09 a7 1e 3e a5 de 92 3d
       -0.053625863 0.30217913 0.15493406 0.07171372
000170 09 24 af ba cc 27 64 3e e4 63 03 3e 20 96 41 3e
       -0.001336218 0.22280806 0.12831074 0.18904924
000180 91 33 a1 3d bb 3e 3b 3e 35 5c 19 3e 24 20 a2 3d
       0.07871164 0.18285649 0.1497658 0.079162866
000190 99 f6 e9 3d 8c b3 00 3e ef 41 aa 3d 74 01 71 bd
       0.11423988 0.12568492 0.08313357 -0.058839276
0001a0 52 df 9f 3e 4f ff dd 3d 10 f5 bc 3d a1 c6 d0 3c
       0.31225067 0.10839712 0.092264295 0.025485339
0001b0 93 70 72 3e cf 78 26 3e f3 4d ed 3d 76 71 37 3e
       0.23675756 0.16257022 0.11587133 0.17914376
0001c0 ca f0 8d 3e 8e d2 9e 3d 74 59 79 bd bf 8d ed 3d
       0.2772277 0.07755004 -0.060876325 0.115993015
0001d0 01 bb 45 3e 26 d2 ff bd b9 d7 64 3e e4 ac 46 3e
       0.19309618 -0.124912545 0.22347917 0.1940189
0001e0 35 66 a6 bd 9b 98 c5 3d a6 4c 7d 3e 6f c7 fb 3d
       -0.08124963 0.09648248 0.2473627 0.12293898
0001f0 d1 f6 6f bc a2 b8 8b 3e f0 96 7a 3e 00 ff 3f 3d
       -0.014646248 0.272893 0.2447164 0.046874046
000200 34 d3 99 3d 82 0a 5a 3c da c7 11 be 9a 98 6f bd
       0.07510987 0.013308169 -0.14236394 -0.05849514
000210 9f 15 35 3d 6f c0 9c 3d 9e 1c 8d be aa 75 98 3e
       0.044210073 0.07653891 -0.27560896 0.2977727
000220 bb 29 81 3c a9 9f 88 3c 54 c1 66 bd dc d1 21 3e
       0.015766969 0.016677694 -0.056336716 0.15802711
000230 75 56 8e bd a9 1a 60 3d 4b ee 96 3e 30 64 45 be
       -0.06950084 0.054712925 0.29478678 -0.192765
000240 d3 f9 fa bd 8a 4d 2a bd 5c 7c 9b bd 0f e8 ad 3e
       -0.122546814 -0.041577853 -0.07592079 0.3396611
000250 b5 2e e2 3d 48 b1 a9 3c 90 fc b7 3d 9c 3d ac be
       0.11044065 0.020714417 0.08983719 -0.33640754
000260 52 a0 20 bd 2b 4e 9b bd 66 c7 e1 bc 8c 3e 84 bd
       -0.039215393 -0.07583269 -0.0275609 -0.06457242
000270 72 22 af 3c 95 7f b5 bd 83 18 f0 3d 46 f0 87 be
       0.02137873 -0.08862225 0.11723425 -0.26550502
000280 6d cf 9b 3b aa 94 b5 bd 82 e6 1c be e5 5e 9c bc
       0.0047549517 -0.08866246 -0.15322307 -0.019088218
000290 c3 50 2b 3e 59 fc 56 3e 29 20 19 be f9 bc 28 3d
       0.16730027 0.209947 -0.14953674 0.041195843
0002a0 c4 11 4b 3e fe ea 65 be 07 a4 3a 3e 59 d3 5e be
       0.19830996 -0.22452924 0.18226634 -0.2176031
0002b0 25 3b 80 3e f1 3e 9e be 75 af 1e be a3 e1 4c be
       0.25045124 -0.30907395 -0.15496619 -0.20007949
0002c0 26 3a 72 bd b7 6b 8d 3e e2 41 54 be 3c 8d 41 3e
       -0.059137486 0.27621242 -0.20728257 0.18901533
0002d0 25 75 ea 3d d5 55 41 3e d9 7e 6e 3e 85 ca 4a bb
       0.11448125 0.18880399 0.23290576 -0.0030943465
0002e0 43 88 3f bd 08 a0 9c bd 84 54 59 3e 39 f9 16 bd
       -0.04676081 -0.07647711 0.21223646 -0.03685877
0002f0 13 57 23 3d 3b 97 b6 3d 9b 1e 5c be 25 a8 26 be
       0.039877962 0.08915564 -0.2149605 -0.1627508
000300 e7 16 fb 3e 1d 98 53 bc de bc 47 bd 64 d9 7a bd
       0.4904091 -0.012914685 -0.048764102 -0.061242476
000310 5d d3 4f 3c 5b ab 0b bd 37 b0 4d 3e ee 2f 54 3c
       0.01268467 -0.034098964 0.20086752 0.01295088
000320 da bd 1c bb f7 d0 4d 3e 61 cf 9e 3e 27 19 d9 3e
       -0.0023916871 0.20099245 0.31017593 0.42402002
000330 97 c9 ad 3e ac fd bd bd af fa 1a 3e 88 38 cd 3d
       0.33942863 -0.092769 0.1513469 0.10020548
000340 bf a2 08 3e 26 1c b7 bd 2a 3f 80 bd e0 2a e1 bd
       0.13343333 -0.08940916 -0.062620476 -0.10994506
000350 01 9b 7c 3d 18 55 8d 3e 5d 5e 6c 3d a6 ab 88 3e
       0.06167126 0.27603984 0.05770718 0.26693457
000360 f9 de 88 bc c1 ba be 3e 79 61 c6 3e 7f 30 19 bd
       -0.016707884 0.37251857 0.3874624 -0.037399765
000370 b5 d8 94 3d fd 2c 98 3a 95 7e c9 3e f7 b2 9d 3e
       0.07267896 0.0011610087 0.39354387 0.30800602
000380 01 bb b2 3e ae de 1a 3e 85 50 ad 3d d1 0c 1c bd
       0.34908298 0.15124008 0.084626235 -0.03809816
000390 e6 ef 47 be cf ff 73 3e d6 6d d2 3d 07 22 e1 bd
       -0.19525108 0.23828052 0.10274856 -0.10992818
0003a0 02 74 59 3e 72 9b 2e be 15 86 e9 3e 12 fa 9e 3e
       0.2123566 -0.17051485 0.4561011 0.31050164
0003b0 b3 9c 1d 3e eb 0e b6 bd b8 95 b8 3d bf 52 a0 3e
       0.15391807 -0.08889564 0.090129316 0.3131313
0003c0 67 45 de 3c fc 40 08 3c 8c b2 6b be b3 36 b9 bc
       0.027132703 0.008316275 -0.23017329 -0.02260909
0003d0 85 45 28 3e f2 ca d8 bc b6 3a 96 3d 2c d8 f8 3e
       0.1643277 -0.02646396 0.07335417 0.48602426
0003e0 c7 21 ce 3e 9c 7a 29 bd 82 35 f8 3d e3 84 f0 3e
       0.40260145 -0.041376695 0.12119581 0.46976385
0003f0 bd 4b 9d 3a 6d de 79 3e af 46 b3 3e 4a 7e 82 3d
       0.0012000721 0.24401255 0.35014865 0.06371744

lstm.bias_hh_l0 f4 [256]
000000 f9 4a 2e be fb dc cf 3c 1a 42 0e be 3d 75 36 be
       -0.17020787 0.025373926 -0.13892403 -0.1781816
000010 21 2b 52 be 96 43 a2 3d f7 ba 2d 3e 70 70 cd 3d
       -0.20524265 0.07923047 0.16965853 0.100312114
000020 37 9c 4b be 36 e1 a8 3c cb 91 46 be d3 cd 4b be
       -0.1988381 0.020615201 -0.19391553 -0.19902734
000030 1b b2 3c 3d 23 7d 2f be 25 0e d1 bd fc ec 36 3e
       0.046068292 -0.1713758 -0.10207776 0.1786384
000040 9c c4 26 3d 2a c4 87 be 37 5c 7e be f4 ee ea bd
       0.040714845 -0.2651685 -0.24839865 -0.11471358
000050 97 b0 ad bc 18 c3 9f 3c 0a 91 ad bd 56 dd 41 3e
       -0.021202369 0.019502208 -0.0847493 0.18932089
000060 40 28 6a be c0 60 b7 3d 92 ed 02 bc 7d b6 bf bd
       -0.22866917 0.089540005 -0.0079912115 -0.09360979
000070 2f 15 15 bd b6 dd 6b be b9 37 f1 bd c5 96 4f bd
       -0.036397155 -0.23033795 -0.117782064 -0.050680894
000080 90 54 57 3d c4 19 58 bc c2 16 47 bd 50 e5 05 be
       0.05257088 -0.013189737 -0.048605688 -0.13075757
000090 49 58 76 3c 3c b0 0c 3f 66 96 98 be f1 42 c1 bd
       0.015035697 0.5495641 -0.29802245 -0.09436596
0000a0 61 da af 3d 68 0d 28 be 10 fe d8 bc ef 4f c9 3e
       0.08586574 -0.16411364 -0.026488334 0.39318797
0000b0 9c 35 d8 3e 8a b3 5d bd 58 34 61 3c e7 5a f9 3d
       0.422284 -0.0541263 0.01374539 0.12175541
0000c0 9e 15 96 bd d3 d3 87 3e 8b 46 82 bd b3 47 23 3d
       -0.07328342 0.26528797 -0.06361111 0.0398633
0000d0 cb 7c 80 bd 7a b1 90 bd 85 ea 5d be 37 14 f6 3d
       -0.06273802 -0.07065101 -0.21671493 0.120155744
0000e0 2d 8e e2 3e a4 71 b5 bd 9a a4 04 3e 70 b7 1d be
       0.44249097 -0.08859566 0.12953416 -0.15402007
0000f0 4b 68 13 be 3b 80 37 bd 3c f7 21 3e 19 b7 ff bc
       -0.14395253 -0.044800024 0.15816969 -0.031215237
000100 5b 5c 6a 3d d9 5e ad 3d fc 6d ce 3c 38 da 12 bd
       0.057216983 0.084653564 0.025198929 -0.03585264
000110 76 19 db bd 69 df b4 3e e7 ee 80 3e 13 99 8d 3e
       -0.10698216 0.35326698 0.25182268 0.2765585
000120 f5 10 80 3b 4d 99 79 3e 47 f7 d1 3d b1 8b ad bc
       0.0039082714 0.24374886 0.102522425 -0.021184774
000130 a6 c2 0a 3e fc 5f 24 3e df 34 82 3e 44 16 85 3e
       0.13550815 0.1605224 0.25430962 0.2599355
000140 40 f6 ed 3d c6 59 f5 3d f2 4c 4e 3e 4e 1a 7a 3e
       0.11619234 0.119800135 0.2014654 0.24424097
000150 a3 c5 e5 3d 99 a0 38 3e ae 1f 72 3d de 27 31 3d
       0.11219337 0.18030013 0.059112243 0.04325091
000160 c3 a8 f3 3d 93 27 90 3e 8b 7f 57 3e f4 54 61 3e
       0.11897423 0.28155193 0.21044748 0.22005063
000170 64 e9 ff 3d 97 99 6d 3e 6a 0d 16 3e a7 0e d3 3d
       0.124956876 0.23203121 0.14653555 0.10305529
000180 15 17 e8 3d 87 61 9b 3d 3c 35 a7 3e 79 68 c6 bb
       0.113325275 0.07586961 0.32657802 -0.0060549346
000190 cc 36 80 3e ae d2 80 3c bc 44 35 3d f0 95 34 3d
       0.25041807 0.01572546 0.044255003 0.044088304
0001a0 42 43 95 3e 13 88 52 3d 52 db 9d 3d 04 6d 57 3e
       0.29152876 0.0513993 0.07707848 0.2103768
0001b0 ee dc c3 3d 3f f8 71 3e 8f 3b 6e 3e 58 fa f0 3d
       0.09563623 0.23629855 0.23264907 0.11766499
0001c0 6f 47 7e 3e 3e bd 98 3d 1e ab 0b 3c a8 7e 63 3e
       0.24831937 0.0745797 0.008524684 0.22216284
0001d0 37 04 28 3e 7a 8d 48 3c 69 fc b7 3d ba 9d 17 3e
       0.16407858 0.012240762 0.0898369 0.14806262
0001e0 a4 dc 6f 3d 99 b7 af 3d 87 8a 57 3e 45 9a 4e 3c
       0.05856003 0.0857994 0.21048938 0.012610023
0001f0 42 4a a5 bd 08 48 97 3d 27 73 91 3e f9 88 9a bd
       -0.08070804 0.07386786 0.28408167 -0.07545657
000200 61 e9 e6 bc 96 de 12 3e b2 8f 53 be dc c0 86 3b
       -0.028187456 0.14342722 -0.20660284 0.004112346
000210 a5 58 8e bd 4f a8 c3 3d d8 56 96 be 90 76 d2 3d
       -0.06950501 0.09553587 -0.29363132 0.1027652
000220 18 f6 13 3d 79 3e 37 be 9e d5 55 3b bd df ee 3d
       0.036123365 -0.17894925 0.0032628546 0.116637684
000230 b9 c7 04 be fd fc 32 3e ce cb 35 3e 46 5d 97 be
       -0.12966813 0.1747932 0.17753527 -0.2956335
000240 5b c9 5b 3c f9 01 ba 3d 92 d7 0c 3d fb e7 1b 3e
       0.013414706 0.090824075 0.03438527 0.15225212
000250 07 b0 ea 3d 05 b6 2a 3e fa af f4 3d 28 89 ae be
       0.11459356 0.16670997 0.11947627 -0.34089017
000260 83 7d 9f 3d ae ff d0 3c 4a 55 00 be 4f 5b 0b 3e
       0.07787611 0.025512543 -0.12532535 0.1360905
000270 f2 a9 ac bd be 2f 60 be 38 4e 23 3e 24 67 64 bd
       -0.08430852 -0.21893212 0.15947807 -0.055762425
000280 dc b3 ee 3c 41 37 61 bc d4 12 3a 3d 78 5f 79 3d
       0.029138498 -0.013746084 0.045428112 0.06088206
000290 b5 32 e1 3d af de 12 3e 73 ec 17 be 5b 14 85 3c
       0.10996 0.1434276 -0.14836292 0.016245058
0002a0 0e 71 20 3e ec d9 5f be e1 b2 0c bc 74 e3 3f be
       0.15668127 -0.21860474 -0.00858757 -0.1873911
0002b0 60 ae b0 3e 69 08 03 be ee 29 82 be 2f 95 3c be
       0.34508038 -0.12796177 -0.25422615 -0.18416284
0002c0 92 24 1f bd 6c 72 79 3e 70 6a 69 be a3 f0 18 3d
       -0.038853236 0.24360055 -0.22794509 0.037338864
0002d0 a4 96 80 3e d8 b1 48 3d 7d 77 25 3d 51 c1 46 3d
       0.2511493 0.04899773 0.040397156 0.048524205
0002e0 b9 dc 4a be 32 84 06 3d 4c 6a 73 3e 2d 49 9b 3d
       -0.19810762 0.032840915 0.23771018 0.075823165
0002f0 be 52 b7 bd 02 dd 46 3d 31 28 a0 be 08 8d db bd
       -0.08951329 0.048550613 -0.31280664 -0.10720259
000300 3d a2 ef 3e 0b f1 4f bd 9e 5c b7 3d bc a2 b4 3d
       0.46803465 -0.050766986 0.08953212 0.088201016
000310 02 f1 3a 3e ec e8 a6 3c 0b d3 56 3e 6f 89 a4 bd
       0.18256 0.020374738 0.20978944 -0.08034026
000320 3a 05 04 be 69 c2 cd 3d d1 4e 2f 3e 6c d4 a1 3e
       -0.12892619 0.100468464 0.1711991 0.31607378
000330 3d 0e 11 3f 84 c4 da bd ee b4 d7 bc ee 63 94 3d
       0.5666235 -0.10682014 -0.026331391 0.072456226
000340 1b 2c 38 3e 4a 94 de 3c 87 30 16 bd 73 bf 2a bd
       0.17985575 0.02717032 -0.036667373 -0.041686486
000350 37 b1 58 bd de b6 d6 3e a6 f0 a7 3d a0 fd 83 3e
       -0.05290338 0.41936392 0.08200197 0.25779438
000360 0e 24 44 3d b7 41 c0 3e e1 f0 fe 3e 66 e6 ca 3d
       0.047885947 0.37550136 0.4979315 0.09907226
000370 3b f3 5a 3c ef 40 06 bd cb 4c dc 3e 49 15 8b 3e
       0.013363655 -0.03277677 0.43027338 0.27164677
000380 3d 27 b4 3e fa 1e 89 3d bf fc 50 3d 70 11 4e 39
       0.35186186 0.066953614 0.051022287 0.00019652187
000390 b4 0d 9e bd 6d 49 bb 3e a5 3d 4e 3d 6f a5 70 3b
       -0.077174574 0.36579457 0.050351758 0.00367197
0003a0 c2 c3 84 3e 5a 14 72 bc 91 40 05 3f e4 dc 24 3e
       0.259306 -0.01477536 0.52051646 0.16099888
0003b0 6d 61 6c 3e 79 46 c1 3c c3 13 19 bd c3 ad a5 3e
       0.2308404 0.023593174 -0.037372362 0.32359132
0003c0 e7 24 86 bd b3 14 10 bb 08 4e 0b be f8 ed 45 3d
       -0.06550007 -0.0021984994 -0.13603985 0.048322648
0003d0 87 c9 23 3e c3 10 33 3e 60 d0 1d bd 88 72 f5 3e
       0.15994845 0.17486863 -0.0385288 0.47938943
0003e0 17 d2 b2 3e a4 4e 87 bd 18 9b 0f 3e dd 97 ae 3e
       0.3492591 -0.066067964 0.14024007 0.34100237
0003f0 b3 c5 d9 3a d3 2d c0 3d ad ce a3 3e f2 8a 02 be
       0.0016614705 0.0938374 0.3199362 -0.12748316

fc.weight f4 [1, 64]
000000 f4 9a e8 bf 30 2d 82 3f 6b 69 d9 bf 85 71 0d 40
       -1.8172288 1.017004 -1.6985296 2.2100537
000010 72 52 e0 bf 50 62 85 3f af e6 8f bf 5f 5e 86 3f
       -1.752516 1.0420628 -1.1242274 1.049755
000020 a3 15 a0 3f 07 ef 8c bf e2 d2 84 3f f2 56 13 c0
       1.2506603 -1.1010445 1.0376856 -2.3021817
000030 fc 1a 9a 3f b1 24 8d 3f 8d 72 7a 3f 61 36 81 bf
       1.2039485 1.1026822 0.9783104 -1.009472
000040 5e 61 9c bf 75 54 8d 3f be 65 8a 3f 2b 86 87 3f
       -1.2217214 1.1041399 1.0812299 1.058782
000050 29 ec a2 3f f6 dc 9f 3f 69 10 f4 bf 16 a9 83 bf
       1.272832 1.2489307 -1.9067508 -1.0285976
000060 ef 21 b5 bf 39 e5 9a bf 75 ae 99 bf ab 5a c4 3f
       -1.4150981 -1.2101203 -1.2006365 1.534017
000070 a8 1f a4 bf 5d 48 85 bf 5e 4a 9b 3f d3 d6 93 bf
       -1.2822161 -1.0412709 1.213207 -1.1549934
000080 98 9d 98 3f 46 5d a1 3f 06 37 95 bf d7 fa d8 3f
       1.1923094 1.260659 -1.1657417 1.695155
000090 bd 36 8b 3f e6 53 8f 3f e4 c9 cc 3f 79 c9 81 3f
       1.087608 1.1197479 1.5999112 1.013961
0000a0 59 85 8c 3f bc a8 84 bf 58 fb a1 3f 4c 91 88 bf
       1.0978194 -1.0363994 1.2654829 -1.0669341
0000b0 2d dc 8d 3f f2 e9 85 bf 70 b8 91 bf 8b 97 85 bf
       1.1082817 -1.046202 -1.1384411 -1.0436872
0000c0 01 81 87 bf 43 b6 8e 3f 9b c9 29 c0 a3 b6 90 3f
       -1.0586244 1.1149372 -2.65293 1.1305736
0000d0 d0 aa 89 3f f4 8b 13 c0 3e f8 94 3f 71 7c 9f 3f
       1.0755253 -2.305417 1.1638258 1.2459852
0000e0 54 09 8b 3f 77 a1 ba bf fd 51 7f 3f b3 a6 a0 3f
       1.0862222 -1.4580525 0.9973448 1.2550873
0000f0 49 77 e3 bf b5 36 9b 3f 80 e9 88 bf 28 13 98 bf
       -1.7770778 1.212607 -1.0696259 -1.1880846

exp_avg f4 [11, 128]
000000 69 3b 7a 3b 19 03 80 3a a4 6a d5 ba 9c a7 72 ba
       0.0038182384 0.0009766548 -0.0016282392 -0.0009256543
000010 df d0 5c 39 88 60 2d 38 41 9c 56 b9 40 66 4d ba
       0.00021058646 4.1336316e-05 -0.0002046684 -0.0007835366
000020 8e 06 5e bb 83 2f 0e 39 f7 04 6a 3a 28 b9 1c bb
       -0.0033878419 0.00013559875 0.00089271314 -0.0023914073
000030 98 14 42 bb 56 e5 1a 3a ec dc 8f 38 a5 cc b3 39
       -0.0029614326 0.00059088075 6.859921e-05 0.00034294013
000040 01 f1 2f 3b 6e da 47 b8 84 73 6c ba 24 ad d9 3a
       0.002684653 -4.7648726e-05 -0.0009019899 0.0016607386
000050 e4 f3 0a 3b 41 79 11 b9 61 3c 20 3b 54 f3 73 3b
       0.00212025 -0.00013873448 0.002445005 0.0037223892
000060 ea 3f 3f 3b df f5 e9 39 a6 de cf ba d1 b4 29 3b
       0.0029182383 0.0004462441 -0.0015859201 0.0025895128
000070 b0 f4 35 bb 53 34 02 39 43 af d6 3a 15 51 97 3a
       -0.0027764253 0.00012417258 0.0016379136 0.001154455
000080 35 eb 3b 3b bf a7 71 3b 76 43 97 b9 3c 9e 6b ba
       0.002867413 0.0036873666 -0.00028851227 -0.00089881173
000090 ad 2d 07 ba 6e c4 eb ba 1f f5 3b bb a9 40 92 bb
       -0.00051566475 -0.0017987618 -0.002868004 -0.0044632745
0000a0 70 6d 95 39 43 74 11 ba fb 61 5e 3a 02 8b 94 bb
       0.00028501032 -0.00055486354 0.0008483228 -0.0045331726
0000b0 7e 55 81 ba 27 2f a9 b9 77 5e 9c 3a 8b 49 df 3a
       -0.0009867398 -0.00032269323 0.0011930008 0.0017035467
0000c0 14 a5 60 3b de 0d 7d bb 93 41 16 3b 62 69 50 bb
       0.0034278082 -0.0038613002 0.002292727 -0.0031801094
0000d0 20 4a 6d bb 64 94 86 bb 5d a8 95 3a 0a 6e 65 37
       -0.0036207512 -0.004107045 0.0011417974 1.3675084e-05
0000e0 1f c2 ae 3a 25 64 fa ba 8f 6f 65 bb 13 cd e5 3a
       0.0013332999 -0.0019103332 -0.003500912 0.001753243
0000f0 06 f7 0c 3b be 27 33 bb a7 2c 6a 3a ef d6 9d ba
       0.0021509542 -0.002733692 0.00089330453 -0.0012042205
000100 55 b9 c1 3a a3 4a 92 3a df 45 92 39 df a6 12 bb
       0.0014779965 0.001116116 0.00027899348 -0.0022377295
000110 40 51 89 b9 97 b3 36 bb 32 ab a7 38 7c 87 da ba
       -0.00026191212 -0.002787804 7.995068e-05 -0.0016672458
000120 15 d5 86 3b 5b 1d 14 bb 16 13 68 ba 24 81 9e ba
       0.004114757 -0.0022600505 -0.00088529417 -0.001209293
000130 1d 86 9e 3a b7 ee 7b bb fb 56 b5 bb 32 c0 ae ba
       0.0012094412 -0.0038441846 -0.0055340505 -0.0013332425
000140 6c 7f 34 3a f3 af 89 3b 4d b4 e6 ba 8a 47 93 3b
       0.00068854424 0.004201883 -0.0017601341 0.004494612
000150 fe d9 4c b9 06 7a ae 3a 94 61 8a bb 06 19 7d 3b
       -0.00019536164 0.0013311512 -0.004223058 0.0038619651
000160 92 f4 ac b8 d3 5c 77 bb f9 63 c1 ba f9 58 c6 ba
       -8.247154e-05 -0.0037744537 -0.0014754526 -0.0015132717
000170 21 af 10 ba 39 54 55 3b 56 71 08 3b 96 83 f7 b9
       -0.00055192603 0.0032551421 0.0020819507 -0.0004720955
000180 a1 cf 1a 3a 57 f7 4f ba 70 4d 85 ba b6 9f 9a bb
       0.0005905573 -0.000793328 -0.0010170173 -0.004718746
000190 ae 43 fe ba 7d f2 d5 3a 8d 8c 8b bb 58 68 66 bb
       -0.0019398832 0.0016322877 -0.0042586983 -0.0035157409
0001a0 af 4d cb 3a 8e 12 85 3a 3f 72 df 39 13 de c0 39
       0.0015510822 0.0010152624 0.00042618994 0.00036786552
0001b0 bc 48 f8 ba 28 a6 85 3a 7d db be 39 c3 8a 5e 3a
       -0.0018942575 0.0010196613 0.00036403156 0.0008489305
0001c0 a2 81 d3 3a e7 74 08 3b 1a e1 d0 3a 19 b2 19 3b
       0.0016136656 0.0020821632 0.0015936226 0.0023452102
0001d0 c1 b5 07 bb 94 e3 de ba 25 d1 5c bb f4 06 21 ba
       -0.00207077 -0.001700508 -0.0033693996 -0.00061426987
0001e0 81 fc 3d bb 28 54 e8 3a 84 ee aa b9 03 e7 9d ba
       -0.0028989615 0.0017725276 -0.00032602635 -0.0012046996
0001f0 bc 9d 3b 3a 9b 79 21 bb f5 db 5a 38 8e 54 37 3b
       0.0007156988 -0.0024639133 5.21801e-05 0.0027973983
000200 0f 85 6b 3b 8c 30 a8 b9 92 81 ff ba 30 36 aa 39
       0.0035937463 -0.00032079627 -0.0019493571 0.000324653
000210 48 a6 f8 39 5c 6a 22 b8 c1 66 25 ba 4a 90 0b bb
       0.00047426135 -3.8722865e-05 -0.0006309562 -0.002129572
000220 50 4c 7c ba 87 5c 94 39 12 a4 99 ba d1 81 5d ba
       -0.00096244086 0.00028297698 -0.001172187 -0.0008449825
000230 f3 45 fc ba fe b7 58 3a e0 44 94 b9 73 0c b2 39
       -0.0019246921 0.0008267163 -0.00028280076 0.0003396008
000240 62 9d f9 3a b5 48 7e b7 4d e8 f7 b6 67 db cf 3a
       0.0019044096 -1.5156508e-05 -7.388217e-06 0.0015858234
000250 53 fb 47 b9 1e ce 52 39 28 5d b8 3a bd f3 0f 3b
       -0.00019071744 0.00020103945 0.0014065849 0.0021965348
000260 23 ac 37 3b aa 2f 96 39 ce 89 aa ba a1 11 0f 3b
       0.0028026185 0.00028645742 -0.001301104 0.0021830576
000270 34 11 12 bb a8 9d dc 3a f8 c4 7a 3a b4 de cc b6
       -0.0022288086 0.0016831653 0.0009566094 -6.1056e-06
000280 7b a3 04 3b 47 7d 15 3b e7 ea dd b9 d2 26 f4 ba
       0.0020239044 0.0022810267 -0.0004232742 -0.0018627292
000290 da 80 f5 39 ca 55 af ba 2e b9 24 bb 5f eb 8f bb
       0.00046826043 -0.0013377008 -0.002513479 -0.004392072
0002a0 24 bc c8 ba 9d 1b 5a ba 1b 45 b0 3a aa 03 3c bb
       -0.0015314859 -0.0008320155 0.0013448329 -0.0028688707
0002b0 c8 32 2f ba 5c 1a 83 ba 8c fe 3b ba 93 14 33 3a
       -0.0006683287 -0.0010002363 -0.00071714143 0.0006831374
0002c0 63 01 0a 3b ad 33 24 bb 06 26 bb 3a f8 9d 01 bb
       0.0021057955 -0.0025055215 0.00142783 -0.0019777995
0002d0 f5 60 1d bb 5d 43 44 bb 7d 13 b1 3a 5c 7a 24 ba
       -0.002401409 -0.0029947378 0.0013509836 -0.00062743365
0002e0 85 a5 30 3a 01 72 62 ba 8d 2f f3 ba f0 e0 37 3a
       0.00067385315 -0.0008638204 -0.00185536 0.00070144143
0002f0 0c 56 eb 39 14 a7 91 ba 13 6b 6f 3a 35 67 08 ba
       0.00044886803 -0.0011112415 0.0009133082 -0.00052033673
000300 9b 1a d8 3a 68 64 ac 3a 92 46 2c b9 f0 2d 59 ba
       0.0016487421 0.0013152482 -0.00016429488 -0.0008284738
000310 3b 10 24 3a 7e 09 e6 ba d8 a0 36 b8 88 3a 37 ba
       0.0006258522 -0.0017550436 -4.354198e-05 -0.0006989618
000320 0e de 68 3a 25 27 e8 ba e9 1d 88 ba bf da 06 ba
       0.00088831864 -0.0017711861 -0.001038489 -0.000514429
000330 00 ee 10 ba e9 12 37 bb 91 57 55 bb 01 9d 83 ba
       -0.0005528629 -0.0027934855 -0.0032553414 -0.0010041298
000340 de b6 83 3a f8 c6 f6 3a b1 5f a8 ba c3 ef 0e 3b
       0.0010049006 0.0018827608 -0.0012845901 0.002181039
000350 9c f2 81 37 36 75 63 3a d6 ae e5 ba 5c 15 f6 3a
       1.5490972e-05 0.00086768286 -0.0017523419 0.0018774676
000360 d9 b5 1d 3a 65 3a eb ba 71 65 1f bb a2 24 0e ba
       0.0006016172 -0.001794648 -0.0024321938 -0.0005422329
000370 5d f8 75 ba 7a d3 c5 3a 89 93 d4 3a bd 1e d1 ba
       -0.00093830173 0.0015092932 0.0016218285 -0.0015954595
000380 ac dd 21 3a a9 c4 96 3a 8c 59 25 b9 4d c6 b7 ba
       0.0006174694 0.0011502701 -0.00015768985 -0.001402089
000390 84 4d 16 bb ca aa 7e 3a c0 15 1b bb 62 24 45 bb
       -0.0022934387 0.00097147806 -0.0023664087 -0.00300815
0003a0 59 42 88 3a 12 f7 0e ba 4e 2d fc 38 37 78 09 3a
       0.001039575 -0.00054536865 0.00012024735 0.00052440487
0003b0 c6 97 8b ba 42 aa c1 3a 46 b3 f1 39 db b5 9f 39
       -0.001065009 0.0014775472 0.0004610067 0.00030462336
0003c0 31 83 cf 3a 37 fc 59 3b a7 d0 8e 39 5f fa 57 39
       0.0015831945 0.0033261904 0.0002723981 0.00020597268
0003d0 80 a0 95 ba 3c a7 35 ba 85 9c cb ba 59 0d db 39
       -0.001141563 -0.0006929522 -0.0015534317 0.0004178088
0003e0 a0 96 a8 ba ee 41 5f 3a 91 16 53 ba 78 d8 6a ba
       -0.0012862273 0.0008516599 -0.0008052374 -0.0008958648
0003f0 3e 64 a3 39 7b 88 a0 37 56 57 66 37 50 c2 08 3b
       0.0003116447 1.913704e-05 1.3729403e-05 0.0020867772
