ALTEGRAD_lab_7_DLForSetsAndGraphGeneration_2024/code/part1/model_deepsets.pth.tar (torch, 123362 bytes, 12 tensors)

embedding.weight f4 [11, 128]
-0.72460216 -0.90408635 0.77572066 -0.09831414 1.3445503 -0.6790188 -0.45803213 0.550393
1.1332213 -0.857947 -1.4435833 -0.8405093 -2.8115966 -0.5091404 -0.6872597 0.3833252
0.88792413 -0.13736074 0.66884124 -1.0116211 -1.3943216 -0.013879669 0.22271965 0.0455776
0.78791445 -0.84192467 -0.30219263 -3.2989767 -0.2838111 0.3088792 0.16588855 1.3081143
1.8001162 0.7853914 -0.73368406 -0.5274463 2.1526508 -2.2596405 -0.46513247 0.70576495
-3.1154964 -0.59531623 1.5199648 -1.1947783 -0.30708387 0.9675831 -1.4578108 0.80367404
-0.2759447 -0.29183638 1.481337 0.24539815 -0.518749 -1.7610714 -0.8216226 -0.72227997
0.13889572 -1.9639907 0.15088427 0.45564073 0.27242532 1.8822687 0.043393236 -0.13314433
1.710044 -0.6231598 1.0576378 -1.8110552 -0.22958842 1.214908 1.1870903 0.6264548
1.5611205 -0.12805116 0.22413734 -0.8440136 -0.18790908 -1.1837068 -0.62714326 -1.0129457
-0.17604224 0.19940889 0.52524364 0.9863399 0.46091923 -0.65364593 0.48831996 1.9249405
-0.6796028 0.5536583 0.09742314 1.188742 -0.43034396 1.4573065 1.2729663 0.26290312
0.474864 -1.0608116 -1.0678868 -1.1077801 0.8554385 -0.6179888 0.44057322 -0.40998316
0.14635135 1.8687674 1.6880666 0.27896518 -1.0962715 1.6888653 0.33137 0.30762732
1.5139678 0.2467912 -0.27093974 -0.3233652 -0.630168 -1.105479 -0.55850893 -0.30923223
-1.5256901 0.9007315 -2.2051804 -0.60846746 -2.110129 -0.56388855 2.0350475 -0.28726175
-0.14582212 -0.7429807 0.52688205 0.6915217 -1.3751765 -0.059077185 0.6829543 -0.23029925
-0.008274977 2.8191345 1.3760554 -0.016419483 -0.106664926 0.051577147 0.5731068 0.47217125
1.2690886 -0.47190228 -1.8057414 1.0931431 -0.90776134 2.106971 -0.37638634 -0.6810629
0.85557187 1.7760625 1.5030034 1.2481372 -0.47382644 -0.81155574 -0.2874407 0.29022488
0.43432406 -0.88527817 -1.5198448 2.061048 -0.44415548 -0.11579876 -0.61018026 -0.44807133
0.9560024 -0.77681404 -1.7211199 0.21612452 -0.7125924 -0.21848184 1.4397733 0.07893056
0.47115654 0.14616898 1.0534707 -0.049429055 -2.157557 0.12105878 1.4067242 -1.1864392
0.8478532 1.0495989 2.1627772 0.805685 -0.10412644 0.13005692 -1.0372841 -0.11199778
0.24654254 -1.9750246 0.7365359 0.25763243 0.43000776 -0.050537974 -0.750877 0.9392417
0.74434555 -0.5968917 -1.5133141 -0.59719664 0.50685763 -1.0359218 0.5300687 -0.28077266
3.4301763 0.10422079 -0.073998995 0.26844665 -0.2396144 0.50135386 0.23755121 -0.17798804
-1.4133875 -1.3173943 0.4225784 -0.9942096 1.0817188 -0.6040692 2.2743468 -0.29682916
-1.2049562 -0.578856 -0.30721527 -0.48398554 2.2777128 -0.6036191 -0.84610754 1.0010825
-0.4153397 -0.9214914 0.33771908 0.2168249 0.20852596 1.587482 -0.17748654 0.59847164
-3.2902093 -0.5327866 1.0017334 0.25485578 0.35163647 -1.669785 -0.3360572 -0.3248803
-0.48190594 1.0419316 0.5882338 0.71763426 -0.63319683 1.0142962 0.31585887 1.0043917
00000000: 877f 39bf 3472 67bf a195 463f ed58 c9bd
00000010: 391a ac3f 2dd4 2dbf 3083 eabe 8ee6 0c3f
00000020: 650d 913f 6aa2 5bbf 56c7 b8bf 9e2b 57bf
00000030: 33f1 33c0 0657 02bf 40f0 2fbf 3343 c43e
00000040: ff4e 633f 4ba8 0cbe 2e39 2b3f cd7c 81bf
00000050: 2179 b2bf 8d67 63bc 9f10 643e 94af 3a3d
00000060: c3b4 493f 6088 57bf feb8 9abe 6f22 53c0
00000070: b04f 91be 6a25 9e3e b0de 293e 4a70 a73f
00000080: 356a e63f 690f 493f b8d2 3bbf b906 07bf
00000090: 08c5 0940 f39d 10c0 d825 eebe 03ad 343f
000000a0: 4b64 47c0 a566 18bf 358e c23f 7fee 98bf
000000b0: 193a 9dbe 87b3 773f 8b99 babf 95bd 4d3f
000000c0: a048 8dbe 946b 95be 739c bd3f a749 7b3e
000000d0: bccc 04bf ca6a e1bf dc55 52bf 57e7 38bf
000000e0: ae3a 0e3e 0c64 fbbf 6881 1a3e be49 e93e
000000f0: 557b 8b3e 2eee f03f 1bbd 313d fd56 08be
00000100: b9e2 da3f 6787 1fbf ad60 873f a8d0 e7bf
00000110: 3a19 6bbe 1b82 9b3f 93f2 973f 575f 203f
00000120: ccd2 c73f d81f 03be 4284 653e 4611 58bf
00000130: 3d6b 40be b483 97bf 768c 20bf 34a8 81bf
00000140: 6b44 34be d831 4c3e 5e76 063f c680 7c3f
00000150: 9bfd eb3e 5755 27bf 1305 fa3e 7364 f63f
00000160: 73fa 2dbf 8dbc 0d3f c985 c73d b328 983f
00000170: 0b56 dcbe 0589 ba3f 8ff0 a23f 3d9b 863e
00000180: 6021 f33e adc8 87bf 84b0 88bf bdcb 8dbf
00000190: 04fe 5a3f 8434 1ebf d092 e13e 50e9 d1be
000001a0: 21dd 153e c533 ef3f 9112 d83f 86d4 8e3e
000001b0: a052 8cbf bd2c d83f 54a9 a93e 5481 9d3e
000001c0: b2c9 c13f d5b6 7c3e 9db8 8abe 2090 a5be
000001d0: b152 21bf 5680 8dbf 71fa 0ebf b053 9ebe
000001e0: d049 c3bf 5796 663f ad21 0dc0 86c4 1bbf
000001f0: 5b0c 07c0 005b 10bf 383e 0240 f913 93be
00000200: 6552 15be fc33 3ebf bee1 063f 9107 313f
00000210: c905 b0bf ebfa 71bd 18d6 2e3f 91d3 6bbe
00000220: c593 07bc b36c 3440 9522 b03f 2782 86bc
00000230: 2473 dabd 8f42 533d 21b7 123f 6ec0 f13e
00000240: 7f71 a23f 2d9d f1be 8922 e7bf 1dec 8b3f
00000250: 0c63 68bf 9dd8 0640 b6b5 c0be 235a 2ebf
00000260: c206 5b3f 0456 e33f 6a62 c03f f6c2 9f3f
00000270: 6199 f2be 1ec2 4fbf 6d2b 93be 5b98 943e
00000280: b95f de3e 97a1 62bf 468a c2bf 36e8 0340
00000290: 5968 e3be e627 edbd c634 1cbf 9b69 e5be
000002a0: 93bc 743f 49dd 46bf a84d dcbf bf4f 5d3e
000002b0: 756c 36bf b4b9 5fbe 7e4a b83f 58a6 a13d
000002c0: 6e3b f13e 52ad 153e 21d8 863f 1f76 4abd
000002d0: 6a15 0ac0 aaed f73d 8a0f b43f 3ddd 97bf
000002e0: e80c 593f 4259 863f f16a 0a40 5f41 4e3f
000002f0: 3e40 d5bd a42d 053e bac5 84bf 185f e5bd
00000300: a675 7c3e 9bcd fcbf 9e8d 3c3f 66e8 833e
00000310: fa29 dc3e e800 4fbd 7a39 40bf 2572 703f
00000320: 6e8d 3e3f e5cd 18bf 47b4 c1bf e1e1 18bf
00000330: 6cc1 013f 1699 84bf 95b2 073f 6fc1 8fbe
00000340: 0288 5b40 b671 d53d c98c 97bd d771 893e
00000350: 7a5d 75be ba58 003f a040 733e 7f42 36be
00000360: e2e9 b4bf 60a0 a8bf 325c d83e 8584 7ebf
00000370: c375 8a3f 47a4 1abf e68e 1140 fef9 97be
00000380: 013c 9abf e82f 14bf 524b 9dbe f4cc f7be
00000390: 0cc6 1140 c886 1abf 819a 58bf 7923 803f
000003a0: 68a7 d4be dce6 6bbf 84e9 ac3e 5907 5e3e
000003b0: d487 553e 9c32 cb3f 08bf 35be 7035 193f
000003c0: ca92 52c0 b464 08bf cd38 803f 757c 823e
000003d0: b209 b43e 84bb d5bf b00f acbe b656 a6be
000003e0: 60bc f6be 045e 853f 7e96 163f e1b6 373f
000003f0: 3019 22bf 75d4 813f 41b8 a13e e88f 803f

fc1.weight f4 [64, 128]
0.08355716 0.12501451 0.0076380423 0.10507144 -0.106781 0.08257026 0.012467985 -0.020892607
0.0062241014 0.16938065 0.18745978 -0.05058618 0.14579402 0.22367425 0.05941854 0.117125556
-0.080033496 0.12988134 -0.2117142 0.049298298 0.07238269 -0.12896849 -0.13744314 0.12503867
0.075996734 0.12998511 0.027753288 0.02093006 0.087578446 -0.058582716 -0.035687987 0.101792775
0.023213824 -0.15162155 -0.12785186 0.07165044 0.08382163 0.07581329 0.008598231 0.15085702
0.06850348 -0.06549003 -0.081624076 0.101310655 0.10404266 0.10657835 0.1366564 -0.10108501
-0.10707335 -0.06761812 -0.106403865 -0.039133277 -0.055692807 0.10773563 0.08157557 -0.023217589
0.12859373 -9.232837e-06 0.11980592 -0.057670083 -0.014036773 -0.1391773 0.10777722 -0.1351465
-0.09415925 -0.13444057 -0.024402948 0.08610353 -0.15175158 -0.17920561 -0.040051572 -0.12137933
-0.10648766 -0.2253195 -0.17179117 -0.066771485 0.16975555 -0.12662205 0.029019121 -0.12947592
-0.008255924 0.10680575 0.097238556 -0.08806073 0.14304669 0.06759259 0.09258815 -0.18400365
-0.121908836 -0.07585448 -0.09549571 0.007819742 0.035165533 0.017062442 -0.025660103 0.018486913
-0.06579069 0.0027900827 0.14797196 0.07013082 -0.054568786 0.07168939 0.006242494 0.1416945
-0.22042896 -0.014527451 -0.08768127 0.08212436 0.020132225 0.08968051 -0.008082372 -0.07929399
-0.062271994 0.14125794 -0.010187275 -0.100127004 0.16390055 0.005626703 0.13439864 0.07410404
0.12470864 0.0706315 0.16171359 0.07847803 0.1526264 0.15973431 0.09361977 0.014088303
-0.04803566 0.005459923 -0.064941905 -0.15905398 -0.029147442 -0.028986054 -0.040249344 -0.10868219
0.040167194 0.021782255 -0.113736704 0.04528105 -0.11758263 -0.12585303 -0.153619 0.008736786
-0.036841042 0.0034795883 0.03897661 -0.17440149 -0.117543876 0.28819147 -0.12705201 -0.17324497
0.15194048 0.034061752 0.01870703 -0.07389273 -0.08780246 0.10773325 0.024238192 0.08147745
0.09625519 -0.0073745036 -0.16049656 0.06871669 0.06532812 -0.04981074 0.032888643 -0.029346423
-0.08620191 -0.11099696 0.10161801 -0.062771745 -0.038580608 0.032616887 -0.041949794 0.02769506
0.07583255 0.031053666 0.118603386 0.054372642 -0.16803755 -0.029237328 -0.00043363497 -0.0866313
0.025318595 0.087672085 0.031482294 0.05350323 -0.046078436 -0.045670133 -0.122637205 0.10014634
0.024304537 -0.081931226 -0.06572271 0.03278857 0.017790744 0.15937717 -0.03223354 -0.007112909
0.13893709 -0.040022865 -0.0047407993 0.012597304 -0.13011107 0.06313017 0.05268618 0.0047480525
0.15394357 -0.014913677 -0.10276091 0.20850743 -0.10638996 0.0087129 0.016577126 0.0094272345
0.0126674045 0.102769166 -0.07657195 -0.03202445 -0.12314392 0.20033023 0.15451589 -0.09409851
0.07384499 -0.016988704 -0.16862121 -0.116723716 0.13165393 -0.12427189 -0.056992486 0.03393853
0.12220203 -0.008747771 0.16764039 -0.25859675 -0.14202121 -0.06294455 -0.1648926 0.19019185
-0.08191111 -0.093360424 0.018265167 -0.014040234 -0.20140845 -0.13237731 0.003943548 0.060298122
-0.012820875 0.08396959 0.004969093 0.10579641 -0.018978965 0.06555983 0.053525086 -0.03962032
00000000: 0420 ab3d ce03 003e 8b48 fa3b b22f d73d
00000010: ffaf dabd 991a a93d 8546 4c3c f926 abbc
00000020: 8cf3 cb3b 1f72 2d3e 75f5 3f3e 7433 4fbd
00000030: 074b 153e dd0a 653e db60 733d 86df ef3d
00000040: 9ae8 a3bd 9dff 043e 9bcb 58be 03ed 493d
00000050: 603d 943d 5110 04be e5bd 0cbe 230a 003e
00000060: 2da4 9b3d d11a 053e dd5a e33c 8475 ab3c
00000070: 545c b33d 6ef4 6fbd 912d 12bd bb78 d03d
00000080: eb2a be3c ae42 1bbe 99eb 02be 77bd 923d
00000090: adaa ab3d 0044 9b3d 98df 0c3c 437a 1a3e
000000a0: 8d4b 8c3d a31f 86bd 862a a7bd f67b cf3d
000000b0: 5114 d53d c045 da3d a8ef 0b3e a805 cfbd
000000c0: 4649 dbbd 5e7b 8abd 45ea d9bd 374a 20bd
000000d0: 241e 64bd 7fa4 dc3d 1811 a73d d032 bebc
000000e0: 13ae 033e bce6 1ab7 ce5c f53d 7737 6cbd
000000f0: 7efa 65bc 7e84 0ebe 4eba dc3d d863 0abe
00000100: 91d6 c0bd caaa 09be b1e8 c7bc 0c57 b03d
00000110: c464 1bbe ad81 37be 1e0d 24bd ba95 f8bd
00000120: 3416 dabd 28ba 66be 06ea 2fbe 7dbf 88bd
00000130: 66d4 2d3e 36a9 01be 82b9 ed3c 5695 04be
00000140: db43 07bc f9bc da3d 0225 c73d 2f59 b4bd
00000150: d57a 123e fc6d 8a3d db9e bd3d 746b 3cbe
00000160: 57ab f9bd 9859 9bbd 4193 c3bd 601e 003c
00000170: bc09 103d 89c6 8b3c 2335 d2bc de71 973c
00000180: 45bd 86bd d2d9 363b f685 173e bfa0 8f3d
00000190: 8583 5fbd e3d1 923d d68d cc3b 5d18 113e
000001a0: 21b8 61be 8c04 6ebc 3d92 b3bd d130 a83d
000001b0: 56ec a43c 6aaa b73d ed6b 04bc e364 a2bd
000001c0: eb10 7fbd eca5 103e 87e8 26bc 630f cdbd
000001d0: 8cd5 273e 3560 b83b cc9f 093e dcc3 973d
000001e0: 3e67 ff3d 3fa7 903d 3f98 253e 17b9 a03d
000001f0: 184a 1c3e 6491 233e b9bb bf3d a0d2 663c
00000200: 0ac1 44bd 27e9 b23b 4300 85bd 0cdf 22be
00000210: 9ec6 eebc 2974 edbc 7fdc 24bd c594 debd
00000220: 5b86 243d b370 b23c caee e8bd 9f78 393d
00000230: 29cf f0bd 9edf 00be 4d4e 1dbe bd24 0f3c
00000240: a2e6 16bd ce09 643b f0a5 1f3d 4e96 32be
00000250: d8ba f0bd d58d 933e ec19 02be 2167 31be
00000260: 4996 1b3e 5684 0b3d 7c3f 993c 1255 97bd
00000270: c7d1 b3bd 40a3 dc3d 2c8f c63c a6dd a63d
00000280: 7121 c53d d2a5 f1bb 3659 24be 56bb 8c3d
00000290: c0ca 853d 5906 4cbd 3eb6 063d e967 f0bc
000002a0: a18a b0bd 6052 e3bd 1a1d d03d 798e 80bd
000002b0: b306 1ebd 4999 053d 8cd3 2bbd c0e0 e23c
000002c0: 194e 9b3d 4264 fe3c 55e6 f23d d9b5 5e3d
000002d0: 0912 2cbe 1f83 efbc 8059 e3b9 c06b b1bd
000002e0: f168 cf3c 6c8d b33d 94f3 003d 3426 5b3d
000002f0: bebc 3cbd 9b10 3bbd 3729 fbbd 8619 cd3d
00000300: 4f1a c73c 8fcb a7bd a199 86bd 4f4d 063d
00000310: e5bd 913c c533 233e 5107 04bd 6813 e9bb
00000320: 8645 0e3e 04ef 23bd b558 9bbb ec64 4e3c
00000330: d63b 05be 644a 813d 77cd 573d 8d95 9b3b
00000340: 62a3 1d3e 7f58 74bc 5074 d2bd f982 553e
00000350: fbe2 d9bd 8dc0 0e3c c1cc 873c b074 1a3c
00000360: f28a 4f3c a478 d23d c1d1 9cbd 122c 03bd
00000370: e132 fcbd 5e23 4d3e 6a39 1e3e b8b6 c0bd
00000380: 0b3c 973d e52b 8bbc 0aab 2cbe d80c efbd
00000390: 4ad0 063e 4382 febd f470 69bd 2103 0b3d
000003a0: 0f45 fa3d d052 0fbc eca9 2b3e cb66 84be
000003b0: 026e 11be 12e9 80bd 9bd9 28be a7c1 423e
000003c0: 03c1 a7bd c033 bfbd d5a0 953c 0209 66bc
000003d0: 043e 4ebe eb8d 07be e138 813b 2afb 763d
000003e0: a60e 52bc 40f8 ab3d c6d3 a23b caab d83d
000003f0: c679 9bbc 3b44 863d 1f3d 5b3d eb48 22bd

fc1.bias f4 [64]
-0.013921044 -0.119000666 0.05334223 0.04364665 -0.09741748 0.11430903 -0.07055281 0.14680251
0.080891386 -0.032937977 0.16698295 -0.121107295 0.13713723 0.0072936495 0.013770433 0.07891104
-0.1046252 -0.040618703 -0.093053736 0.018858938 -0.00664203 -0.02718321 0.048577737 -0.046420913
0.048975077 0.019580944 -0.13200568 0.03872803 -0.16253567 0.0053336807 -0.060579155 0.138392
0.029937517 -0.06285359 0.06238752 0.03749803 -0.08749516 0.07949309 0.12927303 -0.0051251375
-0.06146864 -0.14433104 0.03982772 0.0011878794 0.0029692436 0.064634055 -0.18516836 0.10061152
0.17200325 -0.0864594 -0.02901253 -0.09868404 0.09799005 0.1401732 -0.123570435 0.0047006756
0.06534552 -0.052601032 -0.06560341 -0.008414738 0.02015407 0.08960195 0.12821868 -0.13636544
00000000: 1715 64bc 9fb6 f3bd 627d 5a3d d4c6 323d
00000010: d182 c7bd da1a ea3d fe7d 90bd 6653 163e
00000020: 62aa a53d f9e9 06bd 94fd 2a3e 1a07 f8bd
00000030: b46d 0c3e 91ff ee3b 629d 613c 1d9c a13d
00000040: bd45 d6bd cc5f 26bd f592 bebd 0f7e 9a3c
00000050: 63a5 d9bb 53af debc 73f9 463d db23 3ebd
00000060: 179a 483d 3768 a03c 7f2c 07be 48a1 1e3d
00000070: c06f 26be 28c6 ae3b d921 78bd a2b6 0d3e
00000080: 863f f53c 62b9 80bd 0e8a 7f3d 8997 193d
00000090: aa30 b3bd 46cd a23d 2660 043e c5f0 a7bb
000000a0: 8ac6 7bbd 84cb 13be 6422 233d 9eb2 9b3a
000000b0: a497 423b dc5e 843d c69c 3dbe 6a0d ce3d
000000c0: 9f21 303e a011 b1bd afab edbc dc1a cabd
000000d0: 02af c83d 9089 0f3e 7f12 fdbd 2008 9a3b
000000e0: dfd3 853d 2e74 57bd 155b 86bd f8dd 09bc
000000f0: 261a a53c 3a81 b73d c24b 033e 62a3 0bbe

fc2.weight f4 [1, 64]
0.09513711 -0.12689903 0.13481821 -0.16908905 -0.1833779 0.07929316 -0.13718435 0.120483086
0.18584125 0.13988395 0.08622899 -0.18451796 0.15236746 0.15663932 0.17198363 0.19271412
-0.10389372 -0.19343475 -0.19082837 0.19451633 0.1380597 -0.17943956 0.1342509 -0.14686915
0.13565382 -0.13738227 -0.1674673 0.13132402 -0.19429794 0.13841912 -0.1232337 0.12194926
0.18623917 -0.17502284 0.13694659 0.21175331 -0.25251532 0.14147435 0.13860112 -0.09310268
-0.17644137 -0.16290511 0.14226437 -0.11202148 0.14802915 0.1808914 -0.18947397 0.20268689
0.11823375 -0.15917626 -0.1817809 -0.094188 0.1602584 -0.27274093 -0.16204375 0.14428018
0.14556593 -0.14802389 0.25745577 0.1278852 0.18932335 0.10185575 0.18819833 -0.1497068
00000000: 3fd7 c23d d2f1 01be c90d 0a3e ae25 2dbe
00000010: 6bc7 3bbe 7464 a23d 0e7a 0cbe d6bf f63d
00000020: 2b4d 3e3e bd3d 0f3e d398 b03d 47f2 3cbe
00000030: 3706 1c3e 0f66 203e 7a1c 303e da56 453e
00000040: 3bc6 d4bd c213 46be 8368 43be 4a2f 473e
00000050: 865f 0d3e 01bf 37be 1179 093e de64 16be
00000060: d6e8 0a3e f0ad 0cbe 8c7c 2bbe ce79 063e
00000070: 0af6 46be bebd 0d3e f361 fcbd 89c0 f93d
00000080: 7bb5 3e3e 3039 33be ba3b 0c3e dcd5 583e
00000090: b049 81be a7de 103e 74ed 0d3e 9eac bebd
000000a0: 0cad 34be 99d0 26be c0ad 113e 856b e5bd
000000b0: f494 173e 983b 393e 7705 42be 278d 4f3e
000000c0: 8924 f23d 1aff 22be c624 3abe a3e5 c0bd
000000d0: c71a 243e b3a4 8bbe ccee 25be 2fbe 133e
000000e0: 3c0f 153e 9393 17be 3ed1 833e 56f4 023e
000000f0: fbdd 413e bf99 d03d 10b7 403e bd4c 19be

exp_avg f4 [11, 128]
3.0861214e-05 -1.7775517e-05 0.00023646836 0.00025730045 5.7677487e-05 1.1930558e-05 0.00017794502 0.00016229287
1.4128525e-05 -2.9508245e-05 0.00012467739 -0.00023556591 -4.1409916e-05 0.0001230321 0.00014917016 7.727388e-05
-7.224591e-05 3.2102264e-05 -0.00018773033 8.127978e-05 7.177752e-05 -0.00017453749 9.498376e-05 0.0003079607
-3.0738397e-06 3.1406522e-05 0.00025742647 -0.00015731255 0.00015792465 -0.00013510989 0.00022954609 5.392586e-05
3.0616196e-05 -0.00018431187 1.0840064e-05 -7.0461188e-06 0.0001817517 -5.0021972e-05 -0.00023307317 0.00023173816
1.9997251e-05 1.07194655e-05 -5.9883296e-05 0.00011426892 9.342065e-05 0.0001743643 -0.00013961643 3.437157e-05
-0.00022632923 -4.057101e-05 1.2387998e-05 5.923535e-05 2.8032257e-05 -6.724803e-05 7.198342e-05 -9.489076e-05
0.00022890054 -0.00023548749 0.00016525661 0.000143882 0.00014267895 0.00011838021 5.4856075e-05 -0.00013931122
0.00014013257 -0.00014002628 0.00023945588 -9.2608396e-05 -0.0003162429 -6.751034e-05 0.00014602845 9.365765e-05
4.777449e-05 -0.00020306837 -0.0002147056 -0.00026891768 0.0003320751 -0.0003100996 -3.3687338e-05 -0.0002582064
5.878278e-05 0.00020078964 0.00024430192 5.6253845e-07 0.00024805975 8.33362e-05 9.389516e-05 3.6617563e-05
-0.00018896248 8.567036e-06 1.0548048e-05 3.7413527e-05 9.3580886e-05 0.00019726348 3.528691e-05 0.00023491062
-9.7006e-07 -5.4269294e-05 9.038027e-05 8.6628344e-05 -5.685617e-05 0.00018062194 8.279355e-05 3.5813897e-05
-0.00014176495 0.00022450725 -0.00011096676 0.00025623597 -0.00012407612 0.00010314739 0.00014392556 -0.00024488813
0.00013911 0.00028677058 2.7201768e-06 -0.00019742054 0.00022459868 -4.6703724e-05 -1.5066336e-05 8.588239e-06
-1.7663135e-05 0.00016400628 -4.7784753e-05 -1.8961324e-05 -5.007476e-05 -3.659305e-05 0.00027021606 4.7323832e-05
-2.4361927e-05 -9.134502e-06 -0.00010829737 -0.00012755136 3.505057e-06 -1.1194688e-05 -9.0209905e-05 -6.6057975e-05
-5.828983e-06 -8.590941e-07 -7.5312215e-05 0.00012065192 1.3809551e-05 -8.188508e-05 -8.8413275e-05 -1.8063545e-05
6.4197826e-05 -1.9923475e-05 0.00013210422 -6.1162806e-05 -5.6337725e-05 0.00010188246 -2.5004052e-05 -0.00015613793
-1.1839372e-06 -5.5367662e-05 -0.00013803109 4.063459e-05 -8.258573e-05 7.7482444e-05 -8.2466504e-05 -2.2254198e-05
9.38305e-06 0.000104879044 -3.8697185e-06 -9.300535e-06 -7.708942e-05 -8.533766e-06 0.00010139806 -0.00011249909
-2.2181237e-05 -1.0972597e-05 5.0651513e-05 -6.8744484e-05 -5.4344524e-05 -8.4004016e-05 4.5551522e-05 -1.9096806e-06
0.00010442449 1.10031615e-05 6.617369e-06 -2.2930733e-05 -3.044983e-05 4.7495055e-06 -3.5072848e-05 4.844889e-05
-0.00011012608 0.000101466205 -9.8760574e-05 -7.900079e-05 -8.771559e-05 -4.525818e-05 -4.5937926e-05 7.779224e-05
-5.1322928e-05 7.2713396e-05 -0.00010572734 2.2822034e-05 0.00014701505 6.3081556e-05 -5.53258e-05 -4.1678508e-05
1.1572947e-05 9.281858e-05 0.00011069736 0.00015088936 -0.00015815695 0.00015004864 -1.9601728e-05 0.00010522009
-1.943754e-05 -0.00010813585 -0.00011231673 9.562303e-06 -0.00011443225 -3.7665995e-05 -5.2127787e-05 4.1167596e-07
0.000104161045 -1.8297295e-06 -1.4352144e-05 8.609807e-06 -6.709815e-05 -6.051735e-05 -9.625634e-06 -0.000105964136
2.2431814e-05 8.459465e-06 -5.9572525e-05 -6.121136e-05 3.357224e-05 -0.000109145454 -4.9375507e-05 -3.5183177e-05
9.223667e-05 -7.4563985e-05 6.834333e-05 -0.00013424021 3.1703265e-05 -2.817249e-05 -8.171853e-05 0.00013920503
-5.999726e-05 -0.0001340681 -1.682944e-05 0.0001061056 -0.00013139535 -2.6222394e-06 -4.357386e-06 -9.757697e-06
5.3781805e-06 -6.9952155e-05 1.2343029e-06 4.193998e-06 5.748667e-06 -4.585725e-06 -0.00012758886 -4.3689754e-05
00000000: fa70 0138 a21c 95b7 7ef4 7739 48e6 8639
00000010: bbea 7138 5b29 4837 c196 3a39 292d 2a39
00000020: 8e09 6d37 7988 f7b7 d5bb 0239 3e02 77b9
00000030: 8faf 2db8 2e02 0139 8f6a 1c39 190e a238
00000040: ba82 97b8 8ba5 0638 7ad9 44b9 c074 aa38
00000050: 4387 9638 0d04 37b9 0532 c738 c975 a139
00000060: 2a48 4eb6 7fba 0338 32f7 8639 44f4 24b9
00000070: 9398 2539 49ac 0db9 4fb2 7039 742e 6238
00000080: e469 0038 d743 41b9 b8dd 3537 b36d ecb6
00000090: 9a94 3e39 afce 51b8 1a65 74b9 bdfe 7239
000000a0: c5bf a737 c1d7 3337 332b 7bb8 a9a3 ef38
000000b0: d4ea c338 8fd5 3639 0066 12b9 312a 1038
000000c0: ca52 6db9 ca2a 2ab8 0cd6 4f37 7973 7838
000000d0: d026 eb37 8307 8db8 cef5 9638 1700 c7b8
000000e0: 0505 7039 31ed 76b9 bc48 2d39 08df 1639
000000f0: 179c 1539 e442 f838 4315 6638 1214 12b9
00000100: 8df0 1239 05d4 12b9 7316 7b39 c136 c2b8
00000110: 67cd a5b9 5694 8db8 371f 1939 116a c438
00000120: 7861 4838 c0ee 54b9 9822 61b9 85fd 8cb9
00000130: 5e1a ae39 dd94 a2b9 814b 0db8 e05f 87b9
00000140: 888d 7638 0f8b 5239 a615 8039 5901 1735
00000150: 040e 8239 c8c4 ae38 95e9 c438 cf95 1938
00000160: 3b24 46b9 24bb 0f37 85f7 3037 78ec 1c38
00000170: db40 c438 83d8 4e39 0801 1438 5752 7639
00000180: 0233 82b5 369f 63b8 8a8a bd38 3dac b538
00000190: d978 6eb8 5565 3d39 73a1 ad38 e136 1638
000001a0: bda6 14b9 b569 6b39 d3b6 e8b8 6957 8639
000001b0: 6e1a 02b9 d550 d838 b9ea 1639 5464 80b9
000001c0: 0ede 1139 b259 9639 488c 3636 ac02 4fb9
000001d0: 4082 6b39 bee3 43b8 6cc5 7cb7 3516 1037
000001e0: 4b2b 94b7 1af9 2b39 7d6c 48b8 220f 9fb7
000001f0: 5d07 52b8 7d7b 19b8 c9ab 8d39 947d 4638
00000200: d75c ccb7 6340 19b7 b51d e3b8 4fbf 05b9
00000210: 6c38 6b36 d2d0 3bb7 132f bdb8 9b88 8ab8
00000220: 9596 c3b6 7f9c 66b5 f0f0 9db8 8206 fd38
00000230: 92af 6737 b8b9 abb8 846a b9b8 2b87 97b7
00000240: f2a1 8638 5621 a7b7 7585 0a39 8844 80b8
00000250: 2c4c 6cb8 bba9 d538 cbbf d1b7 f5b8 23b9
00000260: c6e7 9eb5 933a 68b8 70bc 10b9 0f6f 2a38
00000270: e031 adb8 127e a238 def1 acb8 87ae bab7
00000280: e56b 1d37 82f2 db38 a1d8 81b6 7e09 1cb7
00000290: 11ab a1b8 3f2c 0fb7 aba5 d438 7ded ebb8
000002a0: d811 bab7 f216 38b7 a672 5438 ea2a 90b8
000002b0: fdef 63b8 502b b0b8 930e 3f38 1028 00b6
000002c0: 79fe da38 389a 3837 c40a de36 605b c0b7
000002d0: 836e ffb7 f15d 9f36 2f1b 13b8 9935 4b38
000002e0: 7df3 e6b8 41ca d438 ae1d cfb8 3aad a5b8
000002f0: f3f3 b7b8 9ad3 3db8 79ad 40b8 6424 a338
00000300: 9343 57b8 b57d 9838 efb9 ddb8 f271 bf37
00000310: 0d28 1a39 a74a 8438 a00d 68b8 f5cf 2eb8
00000320: 6e29 4237 98a7 c238 3126 e838 0e38 1e39
00000330: efd6 25b9 6056 1d39 646e a4b7 9ba9 dc38
00000340: cd0d a3b7 fec6 e2b8 968b ebb8 c76d 2037
00000350: 59fb efb8 8efb 1db8 c9a3 5ab8 5004 dd34
00000360: 0971 da38 0795 f5b5 fdc9 70b7 d772 1037
00000370: 0cb7 8cb8 03d4 7db8 c97d 21b7 1039 deb8
00000380: f42b bc37 20ed 0d37 83dd 79b8 995e 80b8
00000390: ebcf 0c38 05e5 e4b8 8c18 4fb8 a691 13b8
000003a0: 2f6f c138 3c5f 9cb8 8c53 8f38 d5c2 0cb9
000003b0: 1ff9 0438 f653 ecb7 4d60 abb8 91f7 1139
000003c0: 91a5 7bb8 a294 0cb9 f22c 8db7 0385 de38
000003d0: 2cc7 09b9 bbf9 2fb6 a935 92b6 fdb4 23b7
000003e0: 3876 b436 47b3 92b8 53aa a535 2bba 8c36
000003f0: ace4 c036 14df 99b6 60c9 05b9 843f 37b8

exp_avg_sq f4 [11, 128]
5.970976e-08 4.7568612e-08 4.217589e-06 5.0442522e-06 2.4853426e-07 4.1581396e-09 2.252803e-06 1.8783411e-06
3.8121566e-08 4.5948518e-08 1.1017041e-06 4.268577e-06 1.3850415e-07 1.2072802e-06 1.5754706e-06 4.6890258e-07
3.448635e-07 8.005217e-08 2.6948012e-06 5.196263e-07 3.5377877e-07 2.3809478e-06 7.0256726e-07 7.009073e-06
1.3027658e-10 6.9724e-08 5.050599e-06 1.9159506e-06 1.7257829e-06 1.2732506e-06 3.845655e-06 2.2345888e-07
8.025179e-08 2.3805858e-06 1.9719621e-09 6.5652386e-09 2.559672e-06 2.2120976e-07 4.2314464e-06 4.0412797e-06
1.4376351e-08 8.741179e-09 2.0094387e-07 9.326537e-07 6.070849e-07 2.3534194e-06 1.5694302e-06 1.2733257e-07
4.159151e-06 1.3733829e-07 2.4263485e-08 3.35885e-07 4.3836494e-08 3.8319243e-07 3.9963624e-07 7.391364e-07
3.7540406e-06 4.296606e-06 2.0754642e-06 1.685229e-06 1.5181048e-06 9.896893e-07 2.4228484e-07 1.4728183e-06
1.5601566e-06 1.5700606e-06 4.1173003e-06 7.724611e-07 7.644996e-06 3.2782089e-07 1.6615445e-06 6.959898e-07
2.0242452e-07 3.0922351e-06 3.294423e-06 5.4784887e-06 8.3735495e-06 7.1517643e-06 8.0332704e-08 5.0370363e-06
2.583621e-07 2.8942652e-06 4.856121e-06 5.4460347e-09 4.695256e-06 4.2755835e-07 7.589801e-07 1.3079975e-07
2.561843e-06 1.0437424e-08 3.3506053e-09 1.4928652e-07 6.9714673e-07 3.1816498e-06 1.1193724e-07 4.041955e-06
7.1478814e-09 2.4362336e-07 5.1367397e-07 4.8952484e-07 2.3542411e-07 2.4208814e-06 5.412233e-07 8.0776765e-08
1.4673828e-06 3.7767184e-06 7.5361436e-07 5.051318e-06 1.3593557e-06 8.5374336e-07 1.6209808e-06 4.4860485e-06
1.5046111e-06 6.0871307e-06 1.2651261e-09 2.9072162e-06 3.6192362e-06 2.0439995e-07 9.880899e-09 1.2535635e-08
3.495774e-08 2.120139e-06 2.0446932e-07 6.629059e-08 2.5124038e-07 9.675779e-08 5.487728e-06 1.9589739e-07
8.4207755e-08 1.1030468e-08 1.8099736e-06 2.5381887e-06 6.802247e-09 1.103673e-08 1.1360543e-06 7.474676e-07
5.2040003e-09 2.7052882e-10 7.859191e-07 2.4418582e-06 1.7182398e-08 1.1325458e-06 1.1400888e-06 4.716388e-08
6.9919304e-07 7.918591e-08 2.5187385e-06 5.346529e-07 5.4743066e-07 2.1247797e-06 1.9133878e-07 3.9981232e-06
2.1289395e-08 3.5304632e-07 2.737582e-06 2.7396052e-07 1.1453274e-06 9.438086e-07 1.0527162e-06 6.465553e-08
1.5914127e-08 1.6437913e-06 2.239899e-08 3.465867e-09 8.6242085e-07 1.4960161e-08 1.7044141e-06 2.1057617e-06
7.081961e-08 4.911224e-08 3.197431e-07 7.538659e-07 4.7864177e-07 1.0807505e-06 4.478042e-07 1.5643202e-09
2.0076943e-06 2.960725e-08 5.817316e-09 1.2566895e-07 2.2176486e-07 8.0644735e-09 1.6961853e-07 2.746603e-07
1.8018321e-06 1.6800567e-06 1.3455966e-06 1.0100553e-06 1.1911942e-06 2.4613922e-07 4.2753112e-07 9.4966754e-07
4.2941156e-07 7.4981745e-07 1.5512762e-06 1.089296e-07 3.8763883e-06 6.5133e-07 5.36456e-07 2.5180893e-07
3.9123275e-08 1.3070787e-06 1.79164e-06 3.414631e-06 4.01444e-06 3.508641e-06 3.327231e-08 1.7833324e-06
3.8869985e-08 1.8467999e-06 2.1672247e-06 7.98922e-09 2.1186875e-06 2.3945447e-07 3.5103076e-07 8.4728013e-10
1.4646391e-06 2.3829564e-08 2.8249435e-08 5.310445e-09 6.7409104e-07 7.412683e-07 5.011207e-09 1.7910423e-06
6.502466e-08 6.505693e-09 5.507054e-07 6.2538203e-07 3.659228e-07 2.027997e-06 4.931387e-07 1.3810435e-07
1.2553339e-06 8.3420576e-07 6.883227e-07 2.9801422e-06 2.1819153e-07 8.567136e-08 1.1605476e-06 3.2101143e-06
7.977539e-07 3.0966173e-06 4.4155666e-08 1.760943e-06 2.7565052e-06 1.2941728e-08 1.6702167e-08 2.8528564e-08
8.480191e-09 7.463333e-07 1.5521326e-09 2.828778e-08 3.20711e-09 1.3446031e-09 2.4766564e-06 2.5832765e-07
00000000: ca39 8033 3e4e 4c33 d084 8d36 cc41 a936
00000010: 4a6e 8534 62df 8e31 dc2e 1736 4f1b fc35
00000020: 1bbb 2333 ee58 4533 44de 9335 cc3a 8f36
00000030: bbb7 1434 d509 a235 c274 d335 7bbd fb34
00000040: ae25 b934 25e9 ab33 55d8 3436 737c 0b35
00000050: fcee bd34 5fc8 1f36 0e98 3c35 7b2f eb36
00000060: 993d 0f2f 2dbb 9533 5178 a936 c893 0036
00000070: 73a1 e735 8fe4 aa35 ed09 8136 e9ef 6f34
00000080: e356 ac33 27c2 1f36 2083 0731 7394 e131
00000090: d5c6 2b36 ad85 6d34 d9fb 8d36 549a 8736
000000a0: dcfb 7632 1d2c 1632 08c3 5734 795b 7a35
000000b0: 8ff6 2235 70ef 1d36 36a5 d235 e9b8 0834
000000c0: d68e 8b36 4377 1334 f86b d032 af53 b434
000000d0: bc46 3c33 91b9 cd34 968d d634 1169 4635
000000e0: eded 7b36 912b 9036 3448 0b36 0730 e235
000000f0: afc1 cb35 77d5 8435 6013 8234 a7ad c535
00000100: 9366 d135 dfba d235 5727 8a36 1f5b 4f35
00000110: 0243 0037 5cff af34 3c02 df35 0ed4 3a35
00000120: 075a 5934 3284 4f36 c215 5d36 dcd3 b736
00000130: 1f7c 0c37 30f9 ef36 5f83 ac33 d003 a936
00000140: 04b5 8a34 193b 4236 c3f1 a236 d41f bb31
00000150: f18b 9d36 2c8b e534 b7bc 4b35 f671 0c34
00000160: 21ec 2b36 4750 3332 7940 6631 914b 2034
00000170: 8f23 3b35 5484 5536 2662 f033 21a0 8736
00000180: 6e99 f531 57cb 8234 68e3 0935 e467 0335
00000190: e3c8 7c34 6d76 2236 9548 1135 7f77 ad33
000001a0: e4f2 c435 8773 7d36 fc4b 4a35 7e7e a936
000001b0: 1b73 b635 cc2c 6535 7a90 d935 dd86 9636
000001c0: 0bf2 c935 0e40 cc36 abe0 ad30 9819 4336
000001d0: 01e2 7236 0879 5b34 a7c0 2932 4e5c 5732
000001e0: 7124 1633 b647 0e36 198c 5b34 a35b 8e33
000001f0: 37e2 8634 28c9 cf33 3923 b836 dd57 5234
00000200: b4d5 b433 8380 3d32 38ee f235 c055 2a36
00000210: 33b9 e931 0d9c 3d32 877a 9835 95a5 4835
00000220: dfce b231 8cb9 942f f3f7 5235 cede 2336
00000230: 7e98 9332 fa01 9835 2705 9935 3c91 4a33
00000240: 2eb0 3b35 ea0c aa33 9907 2936 1185 0f35
00000250: 26f3 1235 7097 0e36 ce72 4d34 9e27 8636
00000260: e0df b632 518a bd34 4db7 3736 d914 9334
00000270: 26b9 9935 085a 7d35 0e4b 8d35 c1d8 8a33
00000280: 89b3 8832 3da0 dc35 e667 c032 2d2c 6e31
00000290: 1c81 6735 be81 8032 39c3 e435 b650 0d36
000002a0: 7e15 9833 7bef 5233 28a9 ab34 455d 4a35
000002b0: 037c 0035 4e0e 9135 be69 f034 a0ff d630
000002c0: edbb 0636 0853 fe32 a7e1 c731 9eef 0634
000002d0: 431e 6e34 ee8b 0a32 6320 3634 0675 9334
000002e0: 7bd6 f135 4f7e e135 599a b435 3c91 8735
000002f0: 1fe1 9f35 1e25 8434 6e87 e534 a8ec 7e35
00000300: e089 e634 1047 4935 7235 d035 aeec e933
00000310: ec11 8236 0fd7 2e35 fa00 1035 5b30 8734
00000320: 7f08 2833 e26e af35 4878 f035 ea26 6536
00000330: c7b3 8636 fe75 6b36 4be7 0e33 d65a ef35
00000340: 00f2 2633 90df f735 a370 1136 f640 0932
00000350: c62e 0e36 5f8e 8034 4d75 bc34 0ae6 6830
00000360: 9e94 c435 c4b1 cc32 2aa9 f232 2b77 b631
00000370: 2ff3 3435 92fb 4635 0b2f ac31 bf63 f035
00000380: afa3 8b33 ae88 df31 30d4 1335 eddf 2735
00000390: 0c74 c434 b918 0836 3c60 0435 d649 1434
000003a0: f27c a835 2fee 5f35 2dc5 3835 74fe 4736
000003b0: 0848 6a34 54fa b733 1dc4 9b35 586d 5736
000003c0: 3b25 5635 7bcf 4f36 aba5 3d33 8a59 ec35
000003d0: 66fc 3836 5256 5e32 7478 8f32 fa0e f532
000003e0: 46b0 1132 a257 4835 d052 d530 7cfd f232
000003f0: 1364 5c31 04cd b830 a234 2636 48b0 8a34

exp_avg f4 [64, 128]
-3.7039736e-05 3.814455e-05 2.8232362e-06 -0.00016330778 -1.991374e-05 7.477261e-05 0.00012679596 -0.0003008308
-7.841859e-05 -7.341099e-05 -0.0001344917 8.5493906e-05 -4.3843775e-05 -9.362085e-05 -0.00016115737 -0.00010082062
7.970893e-05 1.3816178e-06 0.00016070525 -8.59342e-05 -0.00018677303 -1.6370474e-05 3.5622666e-05 -0.00020932009
6.909482e-05 -5.421456e-05 -0.00018571185 1.0426463e-05 -2.7351209e-05 8.330885e-05 -4.3868335e-05 6.4848487e-06
0.00011071527 7.2638395e-05 5.3648968e-05 6.7134256e-06 0.00012759179 -9.066631e-05 0.00011287249 -0.00019638176
-3.7283757e-05 -9.8500705e-06 8.262394e-05 -0.00015117245 -0.00010734228 -0.00024517157 1.4471073e-05 -6.262401e-06
-8.292609e-05 -1.6476764e-06 3.685508e-05 0.00013696107 8.612017e-05 -8.349696e-05 -5.087464e-05 7.934778e-05
0.00012743083 8.234857e-05 -0.000109824054 -0.00029918086 -0.0001168328 7.6226876e-05 1.3468276e-05 0.00019263448
-0.0001820342 7.5488184e-05 6.1337065e-05 6.6893364e-05 0.0001025398 0.00026461223 3.011173e-05 1.700222e-05
6.97955e-05 0.00017734592 -9.766905e-05 0.00010451399 -5.1560874e-05 0.00032346032 1.1558695e-05 5.3900996e-05
-1.3058519e-05 4.5161096e-06 0.00011933607 -3.080283e-05 -0.00013723511 1.30250755e-05 -2.8111921e-05 4.1983694e-05
-3.097631e-05 1.3448072e-05 3.741499e-05 -1.7910159e-05 -0.00023943915 -0.00014816434 1.1987971e-05 4.940004e-05
8.1267135e-05 -7.5204985e-06 -7.1070535e-05 -7.484634e-05 0.0001274334 -0.00016823804 -0.000107784705 3.1144926e-05
0.00015194873 6.9167654e-05 3.61105e-05 -8.016052e-06 7.705845e-05 -8.4349056e-05 -4.0543673e-05 -2.4762367e-05
8.637399e-06 -0.00021761408 1.7887625e-05 0.00010134335 -0.00016245514 -0.00016909059 -0.0001461605 -3.0831605e-05
-1.30873095e-05 -8.589633e-05 -5.3763964e-05 -7.7317585e-05 5.900659e-06 7.3232304e-06 -1.1045599e-05 -1.9074056e-05
9.006642e-05 -0.00017338642 -2.6760536e-05 0.0005438757 0.00010699764 -0.0002578866 -0.00037833603 0.0010687914
0.0002421446 0.00018315956 0.0004635268 -0.00028176117 0.00016265301 0.00026416057 0.00054208166 0.00024751402
-0.00017483959 -4.5896482e-05 -0.0004911676 0.00035658057 0.00072110834 2.1843747e-05 -7.6740485e-05 0.0007310435
-0.00033484242 0.00021518706 0.0006231025 4.5887366e-05 0.00016187428 -0.00036874696 6.32612e-05 -2.2342912e-05
-0.00038143084 -0.00024989893 -0.000111524925 -9.563037e-06 -0.0004823893 0.00028769474 -0.00037816356 0.00063876144
8.643447e-05 5.4271673e-05 -0.00031056997 0.00045567797 0.00036913008 0.0007420062 -7.347473e-05 1.545084e-05
0.0003152722 -2.5350148e-05 -0.00017457164 -0.00044081293 -0.00028968253 0.00028643743 0.0001979258 -0.00015765919
-0.0004004004 -0.00030873227 0.0004118665 0.0009916744 0.00047223142 -0.00024803856 -5.4473814e-05 -0.00067138614
0.00054430915 -0.00016870482 -0.00023083737 -0.0002779558 -0.0003246729 -0.0008727483 -0.00012118181 -3.60821e-05
-0.00025150788 -0.00049072586 0.00037590318 -0.0003372475 0.00013328175 -0.0010084755 -0.00010524251 -0.00010869415
-3.523827e-05 4.2260705e-05 -0.0003860858 2.559844e-05 0.00041035307 -1.2550484e-05 3.969781e-05 -0.000118325916
0.00018467402 -5.7965583e-05 2.0710528e-05 2.1232794e-05 0.00081004243 0.0003799322 -4.781767e-05 -8.4057145e-05
-0.0003194282 1.3072495e-05 0.00027194954 0.00026603095 -0.00049171585 0.00054951385 0.00043813832 -0.00021714861
-0.00047846627 -0.00029196235 -0.00018981459 0.00012125283 -0.00020956495 0.00032058262 0.00019451638 8.705015e-06
-1.99479e-05 0.00070281053 8.1192935e-05 -0.0002966218 0.0005581194 0.0006405508 0.0003599819 7.278936e-05
8.760199e-05 0.00025549912 0.00016172188 0.00023355205 -3.3180673e-05 -7.318789e-05 2.2613489e-05 6.155782e-05
00000000: 1d5b 1bb8 66fd 1f38 d476 3d36 993d 2bb9
00000010: 6e0c a7b7 3dcf 9c38 88f4 0439 d4b8 9db9
00000020: a974 a4b8 3af4 99b8 5706 0db9 314b b338
00000030: e5e4 37b8 5056 c4b8 5afc 28b9 a96f d3b8
00000040: 6829 a738 0770 b935 fd82 2839 9337 b4b8
00000050: 81d8 43b9 5353 89b7 8c69 1538 ef7c 5bb9
00000060: 00e7 9038 7164 63b8 a5bb 42b9 51ed 2e37
00000070: 4670 e5b7 19b6 ae38 44ff 37b8 6d98 d936
00000080: cf2f e838 7155 9838 2405 6138 e343 e136
00000090: 29ca 0539 1b24 beb8 f5b5 ec38 d4eb 4db9
000000a0: 2161 1cb8 bb41 25b7 6446 ad38 0c84 1eb9
000000b0: f31c e1b8 5f8a 80b9 c9c8 7237 9d21 d2b6
000000c0: 9be8 adb8 bb25 ddb5 d794 1a38 359d 0f39
000000d0: 6a9b b438 171b afb8 3b62 55b8 8467 a638
000000e0: f49e 0539 8db2 ac38 5751 e6b8 60db 9cb9
000000f0: 2204 f5b8 fedb 9f38 cef5 6137 edfd 4939
00000100: 6fe0 3eb9 694f 9e38 16a2 8038 1a49 8c38
00000110: a30a d738 a7bb 8a39 7398 fc37 fd9f 8e37
00000120: 2c5f 9238 eff5 3939 acd3 ccb8 852e db38
00000130: 1143 58b8 1c96 a939 38ec 4137 c113 6238
00000140: e915 5bb7 1689 9736 1144 fa38 4932 01b8
00000150: c5e6 0fb9 4686 5a37 e4d1 ebb7 a617 3038
00000160: 8fec 01b8 089f 6137 0aee 1c38 c63d 96b7
00000170: f511 7bb9 905c 1bb9 f21f 4937 e432 4f38
00000180: f66d aa38 9758 fcb6 b40b 95b8 d3f6 9cb8
00000190: a59f 0539 0e69 30b9 790a e2b8 9ca1 0238
000001a0: 6d54 1f39 1a0e 9138 5b75 1738 ae7c 06b7
000001b0: 719a a138 8ee4 b0b8 700d 2ab8 c7b8 cfb7
000001c0: 59e9 1037 562f 64b9 620d 9637 4c88 d438
000001d0: b858 2ab9 e94d 31b9 a942 19b9 2f51 01b8
000001e0: 9191 5bb7 3e23 b4b8 9e80 61b8 9025 a2b8
000001f0: 46fe c536 12ba f536 7d50 39b7 3901 a0b7
00000200: 0be2 bc38 10cf 35b9 d07b e0b7 e192 0e3a
00000210: ec63 e038 f434 87b9 675b c6b9 b016 8c3a
00000220: 32e8 7d39 850e 4039 8405 f339 58b9 93b9
00000230: d68d 2a39 087f 8a39 7c1a 0e3a c5c4 8139
00000240: 2555 37b9 f980 40b8 b3c1 00ba 6ff3 ba39
00000250: c308 3d3a 173d b737 bcef a0b8 80a3 3f3a
00000260: ca8d afb9 d6a3 6139 b357 233a 2f77 4038
00000270: ccbc 2939 6154 c1b9 19ab 8438 0a6d bbb7
00000280: c8fa c7b9 de04 83b9 7de2 e9b8 ee70 20b7
00000290: 32e9 fcb9 bcd5 9639 4144 c6b9 8e72 273a
000002a0: 2744 b538 c4a1 6338 ffd3 a2b9 10e8 ee39
000002b0: cd87 c139 3183 423a 7216 9ab8 6d9c 8137
000002c0: 1e4b a539 07a7 d4b7 380d 37b9 e91c e7b9
000002d0: 88e0 97b9 fb2c 9639 4d8a 4f39 5151 25b9
000002e0: d5ec d1b9 58dd a1b9 c9ef d739 12fb 813a
000002f0: d495 f739 2c0b 82b9 d07a 64b8 f6ff 2fba
00000300: f8af 0e3a 5be6 30b9 ef0c 72b9 99ba 91b9
00000310: dc38 aab9 26c9 64ba fd22 feb8 dc56 17b8
00000320: d1dc 83b9 0ea4 00ba df14 c539 98d0 b0b9
00000330: 8cc1 0b39 d32e 84ba a4b5 dcb8 baf2 e3b8
00000340: cecc 13b8 1641 3138 8f6b cab9 3bbc d637
00000350: a824 d739 eb8f 52b7 3381 2638 be25 f8b8
00000360: 0ea5 4139 1220 73b8 85bb ad37 141d b237
00000370: 0759 543a a331 c739 d58f 48b8 d647 b0b8
00000380: ed78 a7b9 f051 5b37 7394 8e39 127a 8b39
00000390: 7ee6 00ba 400d 103a eeb5 e539 63b2 63b9
000003a0: a8da fab9 8612 99b9 f708 47b9 1e49 fe38
000003b0: aabe 5bb9 df13 a839 18f7 4b39 c10b 1237
000003c0: ca55 a7b7 d13c 383a 2046 aa38 e783 9bb9
000003d0: c24e 123a a3ea 273a f4bb bc39 7da6 9838
000003e0: f6b6 b738 83f4 8539 e393 2939 a7e5 7439
000003f0: 7a2b 0bb8 737c 99b8 19b2 bd37 9a18 8138

exp_avg_sq f4 [64, 128]
7.057651e-08 1.5719655e-07 5.613722e-07 6.392448e-07 9.680649e-07 4.5720117e-07 4.0997492e-07 4.7859676e-06
6.389079e-07 2.927124e-07 2.1111996e-06 2.3014443e-06 1.1161142e-07 1.0122895e-06 8.500519e-06 5.0800736e-07
3.342138e-06 1.4715016e-07 2.817417e-06 7.041499e-07 2.238066e-06 2.488512e-07 5.6531746e-08 3.980834e-06
8.467311e-07 6.978644e-07 4.8016923e-06 3.3165003e-07 1.2357605e-06 2.7819171e-06 4.2620846e-07 2.1571269e-07
1.5850354e-07 1.494304e-06 8.422955e-07 1.0450858e-07 4.00574e-07 3.463822e-07 1.0771507e-06 1.4432921e-05
1.4833343e-07 5.1711044e-07 1.8297067e-07 2.5204602e-06 2.1501224e-07 6.0505517e-06 8.941442e-07 2.6354388e-07
4.5617904e-07 4.890145e-07 6.0750017e-07 6.595577e-07 1.2152126e-06 3.27717e-07 4.6819983e-07 1.785095e-06
1.3934181e-06 1.9195845e-06 1.3439055e-06 3.9875154e-06 5.962039e-06 9.4007866e-08 8.236598e-07 6.865126e-06
2.1630697e-06 4.4458657e-06 1.3324389e-07 4.428554e-07 4.7430967e-07 2.2581667e-06 7.299803e-06 1.9200361e-07
1.5083532e-07 5.0810822e-06 4.2689328e-07 3.4360787e-06 1.2327308e-07 2.0055897e-05 1.0513097e-07 1.349717e-06
2.9329686e-07 9.2260854e-07 1.1525948e-06 1.766749e-07 4.5667744e-06 2.748084e-07 5.1705883e-06 8.692228e-08
6.447455e-07 1.5679711e-07 3.2140176e-07 4.450451e-08 2.3221055e-06 1.2726849e-06 2.0992411e-07 1.2866832e-07
8.5071804e-07 1.9913843e-07 2.0721745e-07 1.0528382e-06 3.9206674e-07 4.401564e-06 3.960567e-06 5.736826e-07
3.357881e-06 2.1821522e-07 3.1781877e-07 5.097633e-07 2.8570278e-07 1.5222917e-06 1.1764732e-06 1.3905853e-06
2.443842e-07 4.8339284e-06 1.5776338e-07 8.62296e-07 8.554144e-06 2.5544978e-06 1.8810491e-06 1.0234069e-07
1.0524939e-06 2.294744e-07 4.1503546e-07 3.448614e-07 2.1554426e-07 1.5899143e-06 2.8728123e-06 6.4170496e-07
1.1163612e-06 2.193908e-06 7.8879175e-06 8.12483e-06 5.4220595e-06 4.2387655e-06 4.438013e-06 8.432089e-05
7.406136e-06 1.3485744e-06 2.1627742e-05 3.0407773e-05 1.7721179e-06 6.965831e-06 9.1856244e-05 7.5860034e-06
1.465933e-05 9.83321e-07 2.0958672e-05 6.44815e-06 4.4087134e-05 5.1932857e-06 7.784693e-07 5.4545224e-05
4.2599063e-06 1.0472045e-05 5.00859e-05 2.307728e-06 2.691402e-05 5.8057973e-05 4.2244455e-06 3.7803716e-06
1.5172377e-06 1.8184044e-05 6.0088732e-06 1.2387384e-06 6.7032265e-06 1.2195568e-06 1.4065689e-05 0.0001665578
7.0702504e-06 5.309096e-06 3.0714086e-06 1.5224216e-05 2.6071111e-06 4.8119982e-05 1.6645608e-05 3.6614108e-06
6.1836313e-06 3.8928792e-06 7.271045e-06 6.3418456e-06 1.1662376e-05 2.6974471e-06 4.351061e-06 7.1579243e-06
2.1879552e-05 3.392155e-05 2.349968e-05 4.9566097e-05 0.00010523683 1.439855e-06 8.000329e-06 9.007079e-05
1.9689229e-05 3.0764542e-05 1.2417507e-06 1.1245021e-05 3.9840806e-06 2.2177448e-05 8.4936306e-05 2.620717e-06
1.517976e-06 2.5748908e-05 3.8685416e-06 4.04005e-05 9.1349517e-07 0.00020212542 1.7371729e-06 8.924503e-06
7.901593e-06 2.1430636e-05 1.0384812e-05 5.9614003e-06 4.134215e-05 3.7374366e-06 4.6539717e-05 3.462145e-06
1.8676329e-06 2.035857e-06 3.9850265e-06 5.10651e-07 2.8580338e-05 3.5229211e-06 2.1123806e-06 6.1861915e-06
6.8676563e-06 1.5533989e-06 3.976855e-06 1.1599745e-05 9.208307e-06 4.3633678e-05 7.283857e-05 2.607212e-06
3.0210562e-05 1.3070788e-06 7.0146375e-06 1.81516e-05 3.904164e-06 3.5928697e-05 2.4026042e-05 3.0948027e-05
6.6350467e-06 4.947016e-05 1.4763826e-05 4.7191315e-06 0.00010373857 3.9677467e-05 4.897875e-06 2.593371e-06
1.2927514e-05 1.8879272e-06 2.96942e-06 1.535742e-06 2.090901e-06 1.1180884e-05 3.904298e-05 7.1620802e-06
00000000: d98f 9733 dcc9 2834 34b1 1635 9198 2b35
00000010: 75ee 8135 4075 f534 861a dc34 2697 a036
00000020: 6b81 2b35 1626 9d34 22ae 0d36 8372 1a36
00000030: 07af ef33 01de 8735 739d 0e37 005e 0835
00000040: 7e49 6036 5400 1e34 db12 3d36 d004 3d35
00000050: ae31 1636 d999 8534 50cd 7233 1b93 8536
00000060: eb4a 6335 e054 3b35 391e a136 a20d b234
00000070: 68dc a535 f9b0 3a36 a5d1 e434 a79e 6734
00000080: 1f31 2a34 e58f c835 1b1a 6235 336e e033
00000090: 790e d734 68f6 b934 9e92 9035 ec24 7237
000000a0: 9545 1f34 8fcf 0a35 9876 4434 2d25 2936
000000b0: 1dde 6634 d805 cb36 1f05 7035 327d 8d34
000000c0: c5e8 f434 d244 0335 1813 2335 760c 3135
000000d0: 631a a335 15f1 af34 e55c fb34 6697 ef35
000000e0: 7b05 bb35 36d2 0036 3e60 b435 7fcc 8536
000000f0: 860d c836 5fe1 c933 7819 5d35 fc5a e636
00000100: 4129 1136 b22d 9536 cd11 0f34 95c1 ed34
00000110: a0a4 fe34 028b 1736 d5f0 f436 8d29 4e34
00000120: 4cf5 2134 2a7e aa36 c42f e534 6297 6636
00000130: 0c5d 0434 b63d a837 5dc4 e133 ec27 b535
00000140: 6a76 9d34 2da9 7735 dbb2 9a35 07b4 3d34
00000150: 4b3c 9936 6189 9334 047f ad36 07aa ba33
00000160: 9312 2d35 105c 2834 1f8d ac34 3a25 3f33
00000170: 78d5 1b36 1fd1 aa35 8067 6134 1428 0a34
00000180: e65c 6435 c1d2 5534 807f 5e34 3f4f 8d35
00000190: 3e7d d234 26b1 9336 03e5 8436 2bff 1935
000001a0: f557 6136 8b4e 6a34 aea0 aa34 abd6 0835
000001b0: b162 9934 8b51 cc35 50e7 9d35 26a4 ba35
000001c0: e933 8334 2133 a236 ab65 2934 8878 6735
000001d0: c583 0f37 f06d 2b36 5b78 fc35 64c6 db33
000001e0: 6a43 8d35 7165 7634 0ad2 de34 6425 b934
000001f0: 5b70 6734 0a65 d535 8aca 4036 a141 2c35
00000200: e1d5 9535 0d3b 1336 5956 0437 e14f 0837
00000210: 23ef b536 b83a 8e36 3eea 9436 6fd5 b038
00000220: 3982 f836 aa00 b535 396d b537 3214 ff37
00000230: 82d9 ed35 08bc e936 f2a2 c038 468b fe36
00000240: 58f1 7537 a7fa 8335 68d0 af37 305d d836
00000250: 33ea 3838 fc41 ae36 01f8 5035 7dc7 6438
00000260: 51f0 8e36 17b1 2f37 5313 5238 77de 1a36
00000270: 6bc5 e137 4683 7338 b6bf 8d36 4ab2 7d36
00000280: e4a3 cb35 f089 9837 d49f c936 ba42 a635
00000290: 47ec e036 a7af a335 adfb 6b37 05a6 2e39
000002a0: fd3c ed36 ca24 b236 661e 4e36 836b 7f37
000002b0: d4f5 2e36 70d4 4938 2ca2 8b37 8fb6 7536
000002c0: fd7c cf36 949f 8236 cdf9 f336 0acc d436
000002d0: 86a9 4337 ca05 3536 54ff 9136 1a2e f036
000002e0: fb89 b737 fd46 0e38 2e21 c537 31e5 4f38
000002f0: 98b2 dc38 0b41 c135 2739 0637 63e4 bc38
00000300: 4c2a a537 2d09 0138 3baa a635 ffa8 3c37
00000310: feae 8536 b509 ba37 d51f b238 93df 2f36
00000320: 42bd cb35 5cff d737 85ce 8136 b573 2938
00000330: e936 7535 a1f1 5339 ce28 e935 73ba 1537
00000340: 1591 0437 f1c5 b337 6e3a 2e37 0a08 c836
00000350: cc66 2d38 acd0 7a36 a433 4338 3357 6836
00000360: 61ab fa35 c29f 0836 1eb7 8536 ab13 0935
00000370: cfbf ef37 536b 6c36 6cc2 0d36 fb92 cf36
00000380: b870 e636 617e d035 ed70 8536 879c 4237
00000390: 617d 1a37 4e03 3738 e9c0 9838 90f7 2e36
000003a0: b06c fd37 e36e af35 475f eb36 4444 9837
000003b0: 8300 8336 25b2 1638 888b c937 31ce 0138
000003c0: 9ea2 de36 2e7e 4f38 26b2 7737 0859 9e36
000003d0: 388e d938 5b6b 2638 6d58 a436 c609 2e36
000003e0: 40e3 5837 af64 fd35 3f46 4736 b11f ce35
000003f0: 6851 0c36 8895 3b37 15c2 2338 cd51 f036

exp_avg f4 [64]
-0.00022351369 0.00073905993 -0.0010323368 0.0007398402 0.00019617153 -0.00019441421 0.0016228729 -0.0010215816
-0.008760921 -2.647848e-05 -0.00021786084 9.5676616e-05 -0.00237208 -8.362791e-05 -0.0020005484 -0.00031966364
0.0018983702 0.00082091364 0.0007554718 -1.5721545e-05 -9.3175906e-05 0.0011965635 -0.0002400438 0.00024225378
-0.00022910419 8.667479e-05 0.0026837813 -0.0003556467 0.004253849 -0.0019763117 0.0008375326 -0.0035918206
-0.000472683 0.0015895542 -0.000111389265 -0.0005280724 0.00056285644 -0.0029324861 -0.00012344972 0.00023799289
0.00096315943 0.0016531982 -0.0006426214 0.0007124603 -0.00042639073 -0.0005827898 0.0005717636 -0.00021573689
-0.0038917086 8.997525e-05 0.0014353578 0.0002675069 -0.0003852567 5.62541e-06 0.0009916931 -0.0016589282
-0.0015454205 9.7228636e-05 -7.777098e-05 -0.0023801003 -0.00011443116 -0.00018204816 -0.0012945457 0.0047367755
00000000: 005f 6ab9 79bd 413a 7a4f 87ba d6f1 413a
00000010: 65b3 4d39 abdb 4bb9 94b6 d43a 97e6 85ba
00000020: f789 0fbc 1a1e deb7 9371 64b9 fea5 c838
00000030: e674 1bbb 6461 afb8 a21b 03bb 8798 a7b9
00000040: bcd2 f83a 9532 573a db0a 463a c3e1 83b7
00000050: 6f67 c3b8 02d6 9c3a 44b4 7bb9 8105 7e39
00000060: b03b 70b9 2cc5 b538 61e2 2f3b 1876 bab9
00000070: df63 8b3b 0285 01bb dd8d 5b3a c064 6bbb
00000080: 70d2 f7b9 9758 d03a a899 e9b8 576e 0aba
00000090: a88c 133a f42e 40bb 4872 01b9 bb8d 7939
000000a0: 897c 7c3a 20b0 d83a 9875 28ba 67c4 3a3a
000000b0: 328d dfb9 5dc6 18ba 68e2 153a 6e37 62b9
000000c0: 090c 7fbb 18b1 bc38 9e22 bc3a 2b40 8c39
000000d0: 47fc c9b9 e7c1 bc36 b3fb 813a 6570 d9ba
000000e0: b58f caba 3ae7 cb38 fa18 a3b8 75fb 1bbb
000000f0: c3fa efb8 2ee4 3eb9 bfad a9ba f436 9b3b

exp_avg_sq f4 [64]
1.1246644e-05 0.00013561345 0.0002399045 0.00014282457 7.2588223e-06 8.182714e-06 0.0006076914 0.00024649064
0.02525679 2.2631066e-07 1.0264134e-05 2.7689905e-06 0.0012216081 1.5342098e-06 0.00080962304 2.0554233e-05
0.0007624924 0.00015785494 0.00013734636 6.9663116e-08 1.9193492e-06 0.00031793912 1.47430355e-05 1.6413385e-05
1.3520835e-05 2.283432e-06 0.0014930551 3.9649603e-05 0.003900753 0.000948673 0.00014757032 0.0027357724
6.206331e-05 0.00064008136 3.4896364e-06 6.879805e-05 6.2945364e-05 0.004074629 3.8882463e-06 1.3880491e-05
0.00022955607 0.00054038165 0.000104901206 0.00012116953 4.683131e-05 8.467425e-05 0.0001017262 1.1736526e-05
0.0030869686 1.5377409e-06 0.00048948085 1.5484013e-05 3.5619378e-05 3.0197537e-08 0.00026029808 0.0006311336
0.0005489379 2.2487718e-06 4.695568e-06 0.0014129892 8.031287e-06 7.299975e-06 0.0004218217 0.0048125256
00000000: f8af 3c37 7533 0e39 e08e 7b39 2ec3 1539
00000010: cf90 f336 7d48 0937 7b4d 1f3a 6a3b 8139
00000020: 54e7 ce3c cdff 7234 1f34 2c37 e5d2 3936
00000030: 5e1e a03a 0ceb cd35 e23c 543a e16b ac37
00000040: 00e2 473a dd85 2539 a204 1039 b499 9533
00000050: 2bce 0036 11b1 a639 db58 7737 7aaf 8937
00000060: 8bd7 6237 103d 1936 9eb2 c33a 704d 2638
00000070: c7a3 7f3b 5eb0 783a 1bbd 1a39 a54a 333b
00000080: fc27 8238 22cb 273a 7f2f 6a36 ac47 9038
00000090: 8901 8438 7784 853b c877 8236 41e0 6837
000000a0: fdb4 7039 66a8 0d3a 68fe db38 651c fe38
000000b0: bc6c 4438 2493 b138 d655 d538 ffe7 4437
000000c0: bd4e 4a3b 6064 ce35 8150 003a aae3 8137
000000d0: 0466 1538 8bb2 0133 9e78 8839 a972 253a
000000e0: 99e6 0f3a 9be9 1636 9f8e 9d36 0d34 b93a
000000f0: 1dbe 0637 4ff2 f436 f327 dd39 64b2 9d3b

exp_avg f4 [1, 64]
-0.70540994 0.6417803 -0.6752379 -0.38735598 0.69251287 -0.7053655 -0.22421256 0.2970988
0.31172076 -0.5767563 -0.7053193 -0.39550146 -0.7307332 -0.6780633 0.23887068 -0.6880005
0.637438 0.67305845 -0.31138182 -0.4854072 -0.6779874 0.7030867 -0.64389753 -0.3880295
0.3132961 0.53722566 0.7305618 -0.60494804 -0.26199803 0.35976157 0.70304894 0.29634026
0.35710216 -0.28560612 0.38765067 0.3748677 0.68769425 0.34596574 0.35720485 0.642351
-0.4074662 0.7158949 -0.6021363 0.6728684 -0.6433313 0.25227225 -0.28941432 0.28252372
0.23585188 0.6915952 -0.22216108 0.705155 -0.70654404 -0.6056402 -0.35881424 0.25648743
0.31762016 0.6749704 -0.5111478 -0.65931034 -0.5598658 -0.7057141 0.39032304 -0.2975463
00000000: bf95 34bf b74b 243f 64dc 2cbf 8653 c6be
00000010: 8648 313f d592 34bf fa97 65be 551d 983e
00000020: dd99 9f3e 4da6 13bf ce8f 34bf 2b7f cabe
00000030: 5511 3bbf 8e95 2dbf 849a 743e cd20 30bf
00000040: 232f 233f 8f4d 2c3f 706d 9fbe 4b87 f8be
00000050: 9590 2dbf 7dfd 333f 78d6 24bf cdab c6be
00000060: 5968 a03e 9f87 093f 1906 3b3f e0dd 1abf
00000070: 9b24 86be ab32 b83e 04fb 333f e9b9 973e
00000080: 18d6 b63e f73a 92be 267a c63e a9ee bf3e
00000090: bb0c 303f 6c22 b13e 8ee3 b63e 1d71 243f
000000a0: 699f d0be e344 373f 9b25 1abf 1a41 2c3f
000000b0: 5cb1 24bf d429 813e 1d2e 94be f3a6 903e
000000c0: 2883 713e 620c 313f 327e 63be 0a85 343f
000000d0: 12e0 34bf 3c0b 1bbf 80b6 b7be 5252 833e
000000e0: 1c9f a23e dcca 2c3f 95da 02bf 90c8 28bf
000000f0: 5d53 0fbf aea9 34bf 6cd8 c73e fd57 98be

exp_avg_sq f4 [1, 64]
7.021467 6.812393 6.8544087 16.484236 7.780548 7.0210905 42.762238 35.113018
32.1912 10.031798 7.0204315 22.040283 7.5815916 8.031798 27.27439 6.976332
8.288245 6.992251 21.600626 16.811579 8.033356 6.988217 6.803601 22.086811
28.083475 9.833862 7.579446 6.714082 33.615105 21.32613 6.988851 33.28683
28.342852 34.830917 22.136797 22.02476 6.977244 33.43361 21.902542 7.0678153
16.658043 6.6621017 7.664334 6.8173785 6.805758 35.065372 35.298996 27.88992
40.909836 8.032317 43.11866 7.018027 6.7381444 7.435027 28.088797 34.414516
27.496708 6.9867644 9.234541 6.5271025 7.6751227 7.026037 21.80754 33.09482
00000000: dcaf e040 20ff d940 5157 db40 b7df 8341
00000010: 40fa f840 c6ac e040 880c 2b42 bb73 0c42
00000020: cac3 0042 3f82 2041 60a7 e040 8052 b041
00000030: 669c f240 3f82 0041 f331 da41 1d3e df40
00000040: a79c 0441 85c0 df40 15ce ac41 1d7e 8641
00000050: a088 0041 799f df40 19b7 d940 cab1 b041
00000060: f5aa e041 8057 1d41 d28a f240 c2d9 d640
00000070: de75 0642 ea9b aa41 aba4 df40 b725 0542
00000080: 29be e241 dc52 0b42 2918 b141 b532 b041
00000090: 9545 df40 04bc 0542 6838 af41 8b2b e240
000000a0: ac43 8541 f02f d540 3942 f540 f727 da40
000000b0: c5c8 d940 f142 0c42 2c32 0d42 8e1e df41
000000c0: aca3 2342 5f84 0041 8279 2c42 ad93 e040
000000d0: e19e d740 beeb ed40 dbb5 e041 77a8 0942
000000e0: 42f9 db41 9393 df40 aec0 1341 06de d040
000000f0: 9b9a f540 4cd5 e040 d875 ae41 1861 0442
